<?xml version="1.0" ?>
<net name="main_graph" version="11">
    <layers>
        <layer id="0" name="images" type="Parameter" version="opset1">
            <data shape="1,3,640,640" element_type="f32"/>
            <rt_info>
                <attribute name="fused_names" version="0" value="images"/>
            </rt_info>
            <output>
                <port id="0" precision="FP32" names="images">
                    <dim>1</dim>
                    <dim>3</dim>
                    <dim>640</dim>
                    <dim>640</dim>
                </port>
            </output>
        </layer>
        <layer id="1" name="model.0.conv.weight" type="Const" version="opset1">
            <data element_type="f32" shape="16, 3, 3, 3" offset="0" size="1728"/>
            <rt_info>
                <attribute name="fused_names" version="0" value="model.0.conv.weight"/>
            </rt_info>
            <output>
                <port id="0" precision="FP32" names="model.0.conv.weight">
                    <dim>16</dim>
                    <dim>3</dim>
                    <dim>3</dim>
                    <dim>3</dim>
                </port>
            </output>
        </layer>
        <layer id="2" name="Convolution_154" type="Convolution" version="opset1">
            <data strides="2, 2" dilations="1, 1" pads_begin="1, 1" pads_end="1, 1" auto_pad="explicit"/>
            <rt_info>
                <attribute name="fused_names" version="0" value="Convolution_154"/>
            </rt_info>
            <input>
                <port id="0" precision="FP32">
                    <dim>1</dim>
                    <dim>3</dim>
                    <dim>640</dim>
                    <dim>640</dim>
                </port>
                <port id="1" precision="FP32">
                    <dim>16</dim>
                    <dim>3</dim>
                    <dim>3</dim>
                    <dim>3</dim>
                </port>
            </input>
            <output>
                <port id="2" precision="FP32">
                    <dim>1</dim>
                    <dim>16</dim>
                    <dim>320</dim>
                    <dim>320</dim>
                </port>
            </output>
        </layer>
        <layer id="3" name="Reshape_174" type="Const" version="opset1">
            <data element_type="f32" shape="1, 16, 1, 1" offset="1728" size="64"/>
            <output>
                <port id="0" precision="FP32">
                    <dim>1</dim>
                    <dim>16</dim>
                    <dim>1</dim>
                    <dim>1</dim>
                </port>
            </output>
        </layer>
        <layer id="4" name="/model.0/conv/Conv_output_0" type="Add" version="opset1">
            <data auto_broadcast="numpy"/>
            <rt_info>
                <attribute name="fused_names" version="0" value="/model.0/conv/Conv_output_0, Concat_173, Reshape_174"/>
            </rt_info>
            <input>
                <port id="0" precision="FP32">
                    <dim>1</dim>
                    <dim>16</dim>
                    <dim>320</dim>
                    <dim>320</dim>
                </port>
                <port id="1" precision="FP32">
                    <dim>1</dim>
                    <dim>16</dim>
                    <dim>1</dim>
                    <dim>1</dim>
                </port>
            </input>
            <output>
                <port id="2" precision="FP32" names="/model.0/conv/Conv_output_0">
                    <dim>1</dim>
                    <dim>16</dim>
                    <dim>320</dim>
                    <dim>320</dim>
                </port>
            </output>
        </layer>
        <layer id="5" name="/model.0/act/Mul_output_0" type="Swish" version="opset4">
            <rt_info>
                <attribute name="fused_names" version="0"
                           value="/model.0/act/Mul_output_0, /model.0/act/Sigmoid_output_0"/>
            </rt_info>
            <input>
                <port id="0" precision="FP32">
                    <dim>1</dim>
                    <dim>16</dim>
                    <dim>320</dim>
                    <dim>320</dim>
                </port>
            </input>
            <output>
                <port id="1" precision="FP32" names="/model.0/act/Mul_output_0">
                    <dim>1</dim>
                    <dim>16</dim>
                    <dim>320</dim>
                    <dim>320</dim>
                </port>
            </output>
        </layer>
        <layer id="6" name="model.1.conv.weight" type="Const" version="opset1">
            <data element_type="f32" shape="32, 16, 3, 3" offset="1792" size="18432"/>
            <rt_info>
                <attribute name="fused_names" version="0" value="model.1.conv.weight"/>
            </rt_info>
            <output>
                <port id="0" precision="FP32" names="model.1.conv.weight">
                    <dim>32</dim>
                    <dim>16</dim>
                    <dim>3</dim>
                    <dim>3</dim>
                </port>
            </output>
        </layer>
        <layer id="7" name="Convolution_204" type="Convolution" version="opset1">
            <data strides="2, 2" dilations="1, 1" pads_begin="1, 1" pads_end="1, 1" auto_pad="explicit"/>
            <rt_info>
                <attribute name="fused_names" version="0" value="Convolution_204"/>
            </rt_info>
            <input>
                <port id="0" precision="FP32">
                    <dim>1</dim>
                    <dim>16</dim>
                    <dim>320</dim>
                    <dim>320</dim>
                </port>
                <port id="1" precision="FP32">
                    <dim>32</dim>
                    <dim>16</dim>
                    <dim>3</dim>
                    <dim>3</dim>
                </port>
            </input>
            <output>
                <port id="2" precision="FP32">
                    <dim>1</dim>
                    <dim>32</dim>
                    <dim>160</dim>
                    <dim>160</dim>
                </port>
            </output>
        </layer>
        <layer id="8" name="Reshape_224" type="Const" version="opset1">
            <data element_type="f32" shape="1, 32, 1, 1" offset="20224" size="128"/>
            <output>
                <port id="0" precision="FP32">
                    <dim>1</dim>
                    <dim>32</dim>
                    <dim>1</dim>
                    <dim>1</dim>
                </port>
            </output>
        </layer>
        <layer id="9" name="/model.1/conv/Conv_output_0" type="Add" version="opset1">
            <data auto_broadcast="numpy"/>
            <rt_info>
                <attribute name="fused_names" version="0" value="/model.1/conv/Conv_output_0, Concat_223, Reshape_224"/>
            </rt_info>
            <input>
                <port id="0" precision="FP32">
                    <dim>1</dim>
                    <dim>32</dim>
                    <dim>160</dim>
                    <dim>160</dim>
                </port>
                <port id="1" precision="FP32">
                    <dim>1</dim>
                    <dim>32</dim>
                    <dim>1</dim>
                    <dim>1</dim>
                </port>
            </input>
            <output>
                <port id="2" precision="FP32" names="/model.1/conv/Conv_output_0">
                    <dim>1</dim>
                    <dim>32</dim>
                    <dim>160</dim>
                    <dim>160</dim>
                </port>
            </output>
        </layer>
        <layer id="10" name="/model.1/act/Mul_output_0" type="Swish" version="opset4">
            <rt_info>
                <attribute name="fused_names" version="0"
                           value="/model.1/act/Mul_output_0, /model.1/act/Sigmoid_output_0"/>
            </rt_info>
            <input>
                <port id="0" precision="FP32">
                    <dim>1</dim>
                    <dim>32</dim>
                    <dim>160</dim>
                    <dim>160</dim>
                </port>
            </input>
            <output>
                <port id="1" precision="FP32" names="/model.1/act/Mul_output_0">
                    <dim>1</dim>
                    <dim>32</dim>
                    <dim>160</dim>
                    <dim>160</dim>
                </port>
            </output>
        </layer>
        <layer id="11" name="model.2.cv1.conv.weight" type="Const" version="opset1">
            <data element_type="f32" shape="32, 32, 1, 1" offset="20352" size="4096"/>
            <rt_info>
                <attribute name="fused_names" version="0" value="model.2.cv1.conv.weight"/>
            </rt_info>
            <output>
                <port id="0" precision="FP32" names="model.2.cv1.conv.weight">
                    <dim>32</dim>
                    <dim>32</dim>
                    <dim>1</dim>
                    <dim>1</dim>
                </port>
            </output>
        </layer>
        <layer id="12" name="Convolution_254" type="Convolution" version="opset1">
            <data strides="1, 1" dilations="1, 1" pads_begin="0, 0" pads_end="0, 0" auto_pad="explicit"/>
            <rt_info>
                <attribute name="fused_names" version="0" value="Convolution_254"/>
            </rt_info>
            <input>
                <port id="0" precision="FP32">
                    <dim>1</dim>
                    <dim>32</dim>
                    <dim>160</dim>
                    <dim>160</dim>
                </port>
                <port id="1" precision="FP32">
                    <dim>32</dim>
                    <dim>32</dim>
                    <dim>1</dim>
                    <dim>1</dim>
                </port>
            </input>
            <output>
                <port id="2" precision="FP32">
                    <dim>1</dim>
                    <dim>32</dim>
                    <dim>160</dim>
                    <dim>160</dim>
                </port>
            </output>
        </layer>
        <layer id="13" name="Reshape_274" type="Const" version="opset1">
            <data element_type="f32" shape="1, 32, 1, 1" offset="24448" size="128"/>
            <output>
                <port id="0" precision="FP32">
                    <dim>1</dim>
                    <dim>32</dim>
                    <dim>1</dim>
                    <dim>1</dim>
                </port>
            </output>
        </layer>
        <layer id="14" name="/model.2/cv1/conv/Conv_output_0" type="Add" version="opset1">
            <data auto_broadcast="numpy"/>
            <rt_info>
                <attribute name="fused_names" version="0"
                           value="/model.2/cv1/conv/Conv_output_0, Concat_273, Reshape_274"/>
            </rt_info>
            <input>
                <port id="0" precision="FP32">
                    <dim>1</dim>
                    <dim>32</dim>
                    <dim>160</dim>
                    <dim>160</dim>
                </port>
                <port id="1" precision="FP32">
                    <dim>1</dim>
                    <dim>32</dim>
                    <dim>1</dim>
                    <dim>1</dim>
                </port>
            </input>
            <output>
                <port id="2" precision="FP32" names="/model.2/cv1/conv/Conv_output_0">
                    <dim>1</dim>
                    <dim>32</dim>
                    <dim>160</dim>
                    <dim>160</dim>
                </port>
            </output>
        </layer>
        <layer id="15" name="/model.2/cv1/act/Mul_output_0" type="Swish" version="opset4">
            <rt_info>
                <attribute name="fused_names" version="0"
                           value="/model.2/cv1/act/Mul_output_0, /model.2/cv1/act/Sigmoid_output_0"/>
            </rt_info>
            <input>
                <port id="0" precision="FP32">
                    <dim>1</dim>
                    <dim>32</dim>
                    <dim>160</dim>
                    <dim>160</dim>
                </port>
            </input>
            <output>
                <port id="1" precision="FP32" names="/model.2/cv1/act/Mul_output_0">
                    <dim>1</dim>
                    <dim>32</dim>
                    <dim>160</dim>
                    <dim>160</dim>
                </port>
            </output>
        </layer>
        <layer id="16" name="Constant_305" type="Const" version="opset1">
            <data element_type="i64" shape="" offset="24576" size="8"/>
            <rt_info>
                <attribute name="fused_names" version="0" value="Constant_305"/>
            </rt_info>
            <output>
                <port id="0" precision="I64"/>
            </output>
        </layer>
        <layer id="17" name="onnx::Split_163" type="Const" version="opset1">
            <data element_type="i64" shape="2" offset="24584" size="16"/>
            <rt_info>
                <attribute name="fused_names" version="0" value="onnx::Split_163"/>
            </rt_info>
            <output>
                <port id="0" precision="I64" names="onnx::Split_163">
                    <dim>2</dim>
                </port>
            </output>
        </layer>
        <layer id="18" name="/model.2/Split_output_1" type="VariadicSplit" version="opset1">
            <rt_info>
                <attribute name="fused_names" version="0" value="/model.2/Split_output_1"/>
            </rt_info>
            <input>
                <port id="0" precision="FP32">
                    <dim>1</dim>
                    <dim>32</dim>
                    <dim>160</dim>
                    <dim>160</dim>
                </port>
                <port id="1" precision="I64"/>
                <port id="2" precision="I64">
                    <dim>2</dim>
                </port>
            </input>
            <output>
                <port id="3" precision="FP32" names="/model.2/Split_output_0">
                    <dim>1</dim>
                    <dim>16</dim>
                    <dim>160</dim>
                    <dim>160</dim>
                </port>
                <port id="4" precision="FP32" names="/model.2/Split_output_1">
                    <dim>1</dim>
                    <dim>16</dim>
                    <dim>160</dim>
                    <dim>160</dim>
                </port>
            </output>
        </layer>
        <layer id="19" name="model.2.m.0.cv1.conv.weight" type="Const" version="opset1">
            <data element_type="f32" shape="16, 16, 3, 3" offset="24600" size="9216"/>
            <rt_info>
                <attribute name="fused_names" version="0" value="model.2.m.0.cv1.conv.weight"/>
            </rt_info>
            <output>
                <port id="0" precision="FP32" names="model.2.m.0.cv1.conv.weight">
                    <dim>16</dim>
                    <dim>16</dim>
                    <dim>3</dim>
                    <dim>3</dim>
                </port>
            </output>
        </layer>
        <layer id="20" name="Convolution_307" type="Convolution" version="opset1">
            <data strides="1, 1" dilations="1, 1" pads_begin="1, 1" pads_end="1, 1" auto_pad="explicit"/>
            <rt_info>
                <attribute name="fused_names" version="0" value="Convolution_307"/>
            </rt_info>
            <input>
                <port id="0" precision="FP32">
                    <dim>1</dim>
                    <dim>16</dim>
                    <dim>160</dim>
                    <dim>160</dim>
                </port>
                <port id="1" precision="FP32">
                    <dim>16</dim>
                    <dim>16</dim>
                    <dim>3</dim>
                    <dim>3</dim>
                </port>
            </input>
            <output>
                <port id="2" precision="FP32">
                    <dim>1</dim>
                    <dim>16</dim>
                    <dim>160</dim>
                    <dim>160</dim>
                </port>
            </output>
        </layer>
        <layer id="21" name="Reshape_327" type="Const" version="opset1">
            <data element_type="f32" shape="1, 16, 1, 1" offset="33816" size="64"/>
            <output>
                <port id="0" precision="FP32">
                    <dim>1</dim>
                    <dim>16</dim>
                    <dim>1</dim>
                    <dim>1</dim>
                </port>
            </output>
        </layer>
        <layer id="22" name="/model.2/m.0/cv1/conv/Conv_output_0" type="Add" version="opset1">
            <data auto_broadcast="numpy"/>
            <rt_info>
                <attribute name="fused_names" version="0"
                           value="/model.2/m.0/cv1/conv/Conv_output_0, Concat_326, Reshape_327"/>
            </rt_info>
            <input>
                <port id="0" precision="FP32">
                    <dim>1</dim>
                    <dim>16</dim>
                    <dim>160</dim>
                    <dim>160</dim>
                </port>
                <port id="1" precision="FP32">
                    <dim>1</dim>
                    <dim>16</dim>
                    <dim>1</dim>
                    <dim>1</dim>
                </port>
            </input>
            <output>
                <port id="2" precision="FP32" names="/model.2/m.0/cv1/conv/Conv_output_0">
                    <dim>1</dim>
                    <dim>16</dim>
                    <dim>160</dim>
                    <dim>160</dim>
                </port>
            </output>
        </layer>
        <layer id="23" name="/model.2/m.0/cv1/act/Mul_output_0" type="Swish" version="opset4">
            <rt_info>
                <attribute name="fused_names" version="0"
                           value="/model.2/m.0/cv1/act/Mul_output_0, /model.2/m.0/cv1/act/Sigmoid_output_0"/>
            </rt_info>
            <input>
                <port id="0" precision="FP32">
                    <dim>1</dim>
                    <dim>16</dim>
                    <dim>160</dim>
                    <dim>160</dim>
                </port>
            </input>
            <output>
                <port id="1" precision="FP32" names="/model.2/m.0/cv1/act/Mul_output_0">
                    <dim>1</dim>
                    <dim>16</dim>
                    <dim>160</dim>
                    <dim>160</dim>
                </port>
            </output>
        </layer>
        <layer id="24" name="model.2.m.0.cv2.conv.weight" type="Const" version="opset1">
            <data element_type="f32" shape="16, 16, 3, 3" offset="33880" size="9216"/>
            <rt_info>
                <attribute name="fused_names" version="0" value="model.2.m.0.cv2.conv.weight"/>
            </rt_info>
            <output>
                <port id="0" precision="FP32" names="model.2.m.0.cv2.conv.weight">
                    <dim>16</dim>
                    <dim>16</dim>
                    <dim>3</dim>
                    <dim>3</dim>
                </port>
            </output>
        </layer>
        <layer id="25" name="Convolution_357" type="Convolution" version="opset1">
            <data strides="1, 1" dilations="1, 1" pads_begin="1, 1" pads_end="1, 1" auto_pad="explicit"/>
            <rt_info>
                <attribute name="fused_names" version="0" value="Convolution_357"/>
            </rt_info>
            <input>
                <port id="0" precision="FP32">
                    <dim>1</dim>
                    <dim>16</dim>
                    <dim>160</dim>
                    <dim>160</dim>
                </port>
                <port id="1" precision="FP32">
                    <dim>16</dim>
                    <dim>16</dim>
                    <dim>3</dim>
                    <dim>3</dim>
                </port>
            </input>
            <output>
                <port id="2" precision="FP32">
                    <dim>1</dim>
                    <dim>16</dim>
                    <dim>160</dim>
                    <dim>160</dim>
                </port>
            </output>
        </layer>
        <layer id="26" name="Reshape_377" type="Const" version="opset1">
            <data element_type="f32" shape="1, 16, 1, 1" offset="43096" size="64"/>
            <output>
                <port id="0" precision="FP32">
                    <dim>1</dim>
                    <dim>16</dim>
                    <dim>1</dim>
                    <dim>1</dim>
                </port>
            </output>
        </layer>
        <layer id="27" name="/model.2/m.0/cv2/conv/Conv_output_0" type="Add" version="opset1">
            <data auto_broadcast="numpy"/>
            <rt_info>
                <attribute name="fused_names" version="0"
                           value="/model.2/m.0/cv2/conv/Conv_output_0, Concat_376, Reshape_377"/>
            </rt_info>
            <input>
                <port id="0" precision="FP32">
                    <dim>1</dim>
                    <dim>16</dim>
                    <dim>160</dim>
                    <dim>160</dim>
                </port>
                <port id="1" precision="FP32">
                    <dim>1</dim>
                    <dim>16</dim>
                    <dim>1</dim>
                    <dim>1</dim>
                </port>
            </input>
            <output>
                <port id="2" precision="FP32" names="/model.2/m.0/cv2/conv/Conv_output_0">
                    <dim>1</dim>
                    <dim>16</dim>
                    <dim>160</dim>
                    <dim>160</dim>
                </port>
            </output>
        </layer>
        <layer id="28" name="/model.2/m.0/cv2/act/Mul_output_0" type="Swish" version="opset4">
            <rt_info>
                <attribute name="fused_names" version="0"
                           value="/model.2/m.0/cv2/act/Mul_output_0, /model.2/m.0/cv2/act/Sigmoid_output_0"/>
            </rt_info>
            <input>
                <port id="0" precision="FP32">
                    <dim>1</dim>
                    <dim>16</dim>
                    <dim>160</dim>
                    <dim>160</dim>
                </port>
            </input>
            <output>
                <port id="1" precision="FP32" names="/model.2/m.0/cv2/act/Mul_output_0">
                    <dim>1</dim>
                    <dim>16</dim>
                    <dim>160</dim>
                    <dim>160</dim>
                </port>
            </output>
        </layer>
        <layer id="29" name="/model.2/m.0/Add_output_0" type="Add" version="opset1">
            <data auto_broadcast="numpy"/>
            <rt_info>
                <attribute name="fused_names" version="0" value="/model.2/m.0/Add_output_0"/>
            </rt_info>
            <input>
                <port id="0" precision="FP32">
                    <dim>1</dim>
                    <dim>16</dim>
                    <dim>160</dim>
                    <dim>160</dim>
                </port>
                <port id="1" precision="FP32">
                    <dim>1</dim>
                    <dim>16</dim>
                    <dim>160</dim>
                    <dim>160</dim>
                </port>
            </input>
            <output>
                <port id="2" precision="FP32" names="/model.2/m.0/Add_output_0">
                    <dim>1</dim>
                    <dim>16</dim>
                    <dim>160</dim>
                    <dim>160</dim>
                </port>
            </output>
        </layer>
        <layer id="30" name="/model.2/Concat_output_0" type="Concat" version="opset1">
            <data axis="1"/>
            <rt_info>
                <attribute name="fused_names" version="0" value="/model.2/Concat_output_0"/>
            </rt_info>
            <input>
                <port id="0" precision="FP32">
                    <dim>1</dim>
                    <dim>16</dim>
                    <dim>160</dim>
                    <dim>160</dim>
                </port>
                <port id="1" precision="FP32">
                    <dim>1</dim>
                    <dim>16</dim>
                    <dim>160</dim>
                    <dim>160</dim>
                </port>
                <port id="2" precision="FP32">
                    <dim>1</dim>
                    <dim>16</dim>
                    <dim>160</dim>
                    <dim>160</dim>
                </port>
            </input>
            <output>
                <port id="3" precision="FP32" names="/model.2/Concat_output_0">
                    <dim>1</dim>
                    <dim>48</dim>
                    <dim>160</dim>
                    <dim>160</dim>
                </port>
            </output>
        </layer>
        <layer id="31" name="model.2.cv2.conv.weight" type="Const" version="opset1">
            <data element_type="f32" shape="32, 48, 1, 1" offset="43160" size="6144"/>
            <rt_info>
                <attribute name="fused_names" version="0" value="model.2.cv2.conv.weight"/>
            </rt_info>
            <output>
                <port id="0" precision="FP32" names="model.2.cv2.conv.weight">
                    <dim>32</dim>
                    <dim>48</dim>
                    <dim>1</dim>
                    <dim>1</dim>
                </port>
            </output>
        </layer>
        <layer id="32" name="Convolution_409" type="Convolution" version="opset1">
            <data strides="1, 1" dilations="1, 1" pads_begin="0, 0" pads_end="0, 0" auto_pad="explicit"/>
            <rt_info>
                <attribute name="fused_names" version="0" value="Convolution_409"/>
            </rt_info>
            <input>
                <port id="0" precision="FP32">
                    <dim>1</dim>
                    <dim>48</dim>
                    <dim>160</dim>
                    <dim>160</dim>
                </port>
                <port id="1" precision="FP32">
                    <dim>32</dim>
                    <dim>48</dim>
                    <dim>1</dim>
                    <dim>1</dim>
                </port>
            </input>
            <output>
                <port id="2" precision="FP32">
                    <dim>1</dim>
                    <dim>32</dim>
                    <dim>160</dim>
                    <dim>160</dim>
                </port>
            </output>
        </layer>
        <layer id="33" name="Reshape_429" type="Const" version="opset1">
            <data element_type="f32" shape="1, 32, 1, 1" offset="49304" size="128"/>
            <output>
                <port id="0" precision="FP32">
                    <dim>1</dim>
                    <dim>32</dim>
                    <dim>1</dim>
                    <dim>1</dim>
                </port>
            </output>
        </layer>
        <layer id="34" name="/model.2/cv2/conv/Conv_output_0" type="Add" version="opset1">
            <data auto_broadcast="numpy"/>
            <rt_info>
                <attribute name="fused_names" version="0"
                           value="/model.2/cv2/conv/Conv_output_0, Concat_428, Reshape_429"/>
            </rt_info>
            <input>
                <port id="0" precision="FP32">
                    <dim>1</dim>
                    <dim>32</dim>
                    <dim>160</dim>
                    <dim>160</dim>
                </port>
                <port id="1" precision="FP32">
                    <dim>1</dim>
                    <dim>32</dim>
                    <dim>1</dim>
                    <dim>1</dim>
                </port>
            </input>
            <output>
                <port id="2" precision="FP32" names="/model.2/cv2/conv/Conv_output_0">
                    <dim>1</dim>
                    <dim>32</dim>
                    <dim>160</dim>
                    <dim>160</dim>
                </port>
            </output>
        </layer>
        <layer id="35" name="/model.2/cv2/act/Mul_output_0" type="Swish" version="opset4">
            <rt_info>
                <attribute name="fused_names" version="0"
                           value="/model.2/cv2/act/Mul_output_0, /model.2/cv2/act/Sigmoid_output_0"/>
            </rt_info>
            <input>
                <port id="0" precision="FP32">
                    <dim>1</dim>
                    <dim>32</dim>
                    <dim>160</dim>
                    <dim>160</dim>
                </port>
            </input>
            <output>
                <port id="1" precision="FP32" names="/model.2/cv2/act/Mul_output_0">
                    <dim>1</dim>
                    <dim>32</dim>
                    <dim>160</dim>
                    <dim>160</dim>
                </port>
            </output>
        </layer>
        <layer id="36" name="model.3.conv.weight" type="Const" version="opset1">
            <data element_type="f32" shape="64, 32, 3, 3" offset="49432" size="73728"/>
            <rt_info>
                <attribute name="fused_names" version="0" value="model.3.conv.weight"/>
            </rt_info>
            <output>
                <port id="0" precision="FP32" names="model.3.conv.weight">
                    <dim>64</dim>
                    <dim>32</dim>
                    <dim>3</dim>
                    <dim>3</dim>
                </port>
            </output>
        </layer>
        <layer id="37" name="Convolution_459" type="Convolution" version="opset1">
            <data strides="2, 2" dilations="1, 1" pads_begin="1, 1" pads_end="1, 1" auto_pad="explicit"/>
            <rt_info>
                <attribute name="fused_names" version="0" value="Convolution_459"/>
            </rt_info>
            <input>
                <port id="0" precision="FP32">
                    <dim>1</dim>
                    <dim>32</dim>
                    <dim>160</dim>
                    <dim>160</dim>
                </port>
                <port id="1" precision="FP32">
                    <dim>64</dim>
                    <dim>32</dim>
                    <dim>3</dim>
                    <dim>3</dim>
                </port>
            </input>
            <output>
                <port id="2" precision="FP32">
                    <dim>1</dim>
                    <dim>64</dim>
                    <dim>80</dim>
                    <dim>80</dim>
                </port>
            </output>
        </layer>
        <layer id="38" name="Reshape_479" type="Const" version="opset1">
            <data element_type="f32" shape="1, 64, 1, 1" offset="123160" size="256"/>
            <output>
                <port id="0" precision="FP32">
                    <dim>1</dim>
                    <dim>64</dim>
                    <dim>1</dim>
                    <dim>1</dim>
                </port>
            </output>
        </layer>
        <layer id="39" name="/model.3/conv/Conv_output_0" type="Add" version="opset1">
            <data auto_broadcast="numpy"/>
            <rt_info>
                <attribute name="fused_names" version="0" value="/model.3/conv/Conv_output_0, Concat_478, Reshape_479"/>
            </rt_info>
            <input>
                <port id="0" precision="FP32">
                    <dim>1</dim>
                    <dim>64</dim>
                    <dim>80</dim>
                    <dim>80</dim>
                </port>
                <port id="1" precision="FP32">
                    <dim>1</dim>
                    <dim>64</dim>
                    <dim>1</dim>
                    <dim>1</dim>
                </port>
            </input>
            <output>
                <port id="2" precision="FP32" names="/model.3/conv/Conv_output_0">
                    <dim>1</dim>
                    <dim>64</dim>
                    <dim>80</dim>
                    <dim>80</dim>
                </port>
            </output>
        </layer>
        <layer id="40" name="/model.3/act/Mul_output_0" type="Swish" version="opset4">
            <rt_info>
                <attribute name="fused_names" version="0"
                           value="/model.3/act/Mul_output_0, /model.3/act/Sigmoid_output_0"/>
            </rt_info>
            <input>
                <port id="0" precision="FP32">
                    <dim>1</dim>
                    <dim>64</dim>
                    <dim>80</dim>
                    <dim>80</dim>
                </port>
            </input>
            <output>
                <port id="1" precision="FP32" names="/model.3/act/Mul_output_0">
                    <dim>1</dim>
                    <dim>64</dim>
                    <dim>80</dim>
                    <dim>80</dim>
                </port>
            </output>
        </layer>
        <layer id="41" name="model.4.cv1.conv.weight" type="Const" version="opset1">
            <data element_type="f32" shape="64, 64, 1, 1" offset="123416" size="16384"/>
            <rt_info>
                <attribute name="fused_names" version="0" value="model.4.cv1.conv.weight"/>
            </rt_info>
            <output>
                <port id="0" precision="FP32" names="model.4.cv1.conv.weight">
                    <dim>64</dim>
                    <dim>64</dim>
                    <dim>1</dim>
                    <dim>1</dim>
                </port>
            </output>
        </layer>
        <layer id="42" name="Convolution_509" type="Convolution" version="opset1">
            <data strides="1, 1" dilations="1, 1" pads_begin="0, 0" pads_end="0, 0" auto_pad="explicit"/>
            <rt_info>
                <attribute name="fused_names" version="0" value="Convolution_509"/>
            </rt_info>
            <input>
                <port id="0" precision="FP32">
                    <dim>1</dim>
                    <dim>64</dim>
                    <dim>80</dim>
                    <dim>80</dim>
                </port>
                <port id="1" precision="FP32">
                    <dim>64</dim>
                    <dim>64</dim>
                    <dim>1</dim>
                    <dim>1</dim>
                </port>
            </input>
            <output>
                <port id="2" precision="FP32">
                    <dim>1</dim>
                    <dim>64</dim>
                    <dim>80</dim>
                    <dim>80</dim>
                </port>
            </output>
        </layer>
        <layer id="43" name="Reshape_529" type="Const" version="opset1">
            <data element_type="f32" shape="1, 64, 1, 1" offset="139800" size="256"/>
            <output>
                <port id="0" precision="FP32">
                    <dim>1</dim>
                    <dim>64</dim>
                    <dim>1</dim>
                    <dim>1</dim>
                </port>
            </output>
        </layer>
        <layer id="44" name="/model.4/cv1/conv/Conv_output_0" type="Add" version="opset1">
            <data auto_broadcast="numpy"/>
            <rt_info>
                <attribute name="fused_names" version="0"
                           value="/model.4/cv1/conv/Conv_output_0, Concat_528, Reshape_529"/>
            </rt_info>
            <input>
                <port id="0" precision="FP32">
                    <dim>1</dim>
                    <dim>64</dim>
                    <dim>80</dim>
                    <dim>80</dim>
                </port>
                <port id="1" precision="FP32">
                    <dim>1</dim>
                    <dim>64</dim>
                    <dim>1</dim>
                    <dim>1</dim>
                </port>
            </input>
            <output>
                <port id="2" precision="FP32" names="/model.4/cv1/conv/Conv_output_0">
                    <dim>1</dim>
                    <dim>64</dim>
                    <dim>80</dim>
                    <dim>80</dim>
                </port>
            </output>
        </layer>
        <layer id="45" name="/model.4/cv1/act/Mul_output_0" type="Swish" version="opset4">
            <rt_info>
                <attribute name="fused_names" version="0"
                           value="/model.4/cv1/act/Mul_output_0, /model.4/cv1/act/Sigmoid_output_0"/>
            </rt_info>
            <input>
                <port id="0" precision="FP32">
                    <dim>1</dim>
                    <dim>64</dim>
                    <dim>80</dim>
                    <dim>80</dim>
                </port>
            </input>
            <output>
                <port id="1" precision="FP32" names="/model.4/cv1/act/Mul_output_0">
                    <dim>1</dim>
                    <dim>64</dim>
                    <dim>80</dim>
                    <dim>80</dim>
                </port>
            </output>
        </layer>
        <layer id="46" name="Constant_560" type="Const" version="opset1">
            <data element_type="i64" shape="" offset="24576" size="8"/>
            <rt_info>
                <attribute name="fused_names" version="0" value="Constant_560"/>
            </rt_info>
            <output>
                <port id="0" precision="I64"/>
            </output>
        </layer>
        <layer id="47" name="onnx::Split_183" type="Const" version="opset1">
            <data element_type="i64" shape="2" offset="140056" size="16"/>
            <rt_info>
                <attribute name="fused_names" version="0" value="onnx::Split_183"/>
            </rt_info>
            <output>
                <port id="0" precision="I64" names="onnx::Split_183">
                    <dim>2</dim>
                </port>
            </output>
        </layer>
        <layer id="48" name="/model.4/Split_output_1" type="VariadicSplit" version="opset1">
            <rt_info>
                <attribute name="fused_names" version="0" value="/model.4/Split_output_1"/>
            </rt_info>
            <input>
                <port id="0" precision="FP32">
                    <dim>1</dim>
                    <dim>64</dim>
                    <dim>80</dim>
                    <dim>80</dim>
                </port>
                <port id="1" precision="I64"/>
                <port id="2" precision="I64">
                    <dim>2</dim>
                </port>
            </input>
            <output>
                <port id="3" precision="FP32" names="/model.4/Split_output_0">
                    <dim>1</dim>
                    <dim>32</dim>
                    <dim>80</dim>
                    <dim>80</dim>
                </port>
                <port id="4" precision="FP32" names="/model.4/Split_output_1">
                    <dim>1</dim>
                    <dim>32</dim>
                    <dim>80</dim>
                    <dim>80</dim>
                </port>
            </output>
        </layer>
        <layer id="49" name="model.4.m.0.cv1.conv.weight" type="Const" version="opset1">
            <data element_type="f32" shape="32, 32, 3, 3" offset="140072" size="36864"/>
            <rt_info>
                <attribute name="fused_names" version="0" value="model.4.m.0.cv1.conv.weight"/>
            </rt_info>
            <output>
                <port id="0" precision="FP32" names="model.4.m.0.cv1.conv.weight">
                    <dim>32</dim>
                    <dim>32</dim>
                    <dim>3</dim>
                    <dim>3</dim>
                </port>
            </output>
        </layer>
        <layer id="50" name="Convolution_562" type="Convolution" version="opset1">
            <data strides="1, 1" dilations="1, 1" pads_begin="1, 1" pads_end="1, 1" auto_pad="explicit"/>
            <rt_info>
                <attribute name="fused_names" version="0" value="Convolution_562"/>
            </rt_info>
            <input>
                <port id="0" precision="FP32">
                    <dim>1</dim>
                    <dim>32</dim>
                    <dim>80</dim>
                    <dim>80</dim>
                </port>
                <port id="1" precision="FP32">
                    <dim>32</dim>
                    <dim>32</dim>
                    <dim>3</dim>
                    <dim>3</dim>
                </port>
            </input>
            <output>
                <port id="2" precision="FP32">
                    <dim>1</dim>
                    <dim>32</dim>
                    <dim>80</dim>
                    <dim>80</dim>
                </port>
            </output>
        </layer>
        <layer id="51" name="Reshape_582" type="Const" version="opset1">
            <data element_type="f32" shape="1, 32, 1, 1" offset="176936" size="128"/>
            <output>
                <port id="0" precision="FP32">
                    <dim>1</dim>
                    <dim>32</dim>
                    <dim>1</dim>
                    <dim>1</dim>
                </port>
            </output>
        </layer>
        <layer id="52" name="/model.4/m.0/cv1/conv/Conv_output_0" type="Add" version="opset1">
            <data auto_broadcast="numpy"/>
            <rt_info>
                <attribute name="fused_names" version="0"
                           value="/model.4/m.0/cv1/conv/Conv_output_0, Concat_581, Reshape_582"/>
            </rt_info>
            <input>
                <port id="0" precision="FP32">
                    <dim>1</dim>
                    <dim>32</dim>
                    <dim>80</dim>
                    <dim>80</dim>
                </port>
                <port id="1" precision="FP32">
                    <dim>1</dim>
                    <dim>32</dim>
                    <dim>1</dim>
                    <dim>1</dim>
                </port>
            </input>
            <output>
                <port id="2" precision="FP32" names="/model.4/m.0/cv1/conv/Conv_output_0">
                    <dim>1</dim>
                    <dim>32</dim>
                    <dim>80</dim>
                    <dim>80</dim>
                </port>
            </output>
        </layer>
        <layer id="53" name="/model.4/m.0/cv1/act/Mul_output_0" type="Swish" version="opset4">
            <rt_info>
                <attribute name="fused_names" version="0"
                           value="/model.4/m.0/cv1/act/Mul_output_0, /model.4/m.0/cv1/act/Sigmoid_output_0"/>
            </rt_info>
            <input>
                <port id="0" precision="FP32">
                    <dim>1</dim>
                    <dim>32</dim>
                    <dim>80</dim>
                    <dim>80</dim>
                </port>
            </input>
            <output>
                <port id="1" precision="FP32" names="/model.4/m.0/cv1/act/Mul_output_0">
                    <dim>1</dim>
                    <dim>32</dim>
                    <dim>80</dim>
                    <dim>80</dim>
                </port>
            </output>
        </layer>
        <layer id="54" name="model.4.m.0.cv2.conv.weight" type="Const" version="opset1">
            <data element_type="f32" shape="32, 32, 3, 3" offset="177064" size="36864"/>
            <rt_info>
                <attribute name="fused_names" version="0" value="model.4.m.0.cv2.conv.weight"/>
            </rt_info>
            <output>
                <port id="0" precision="FP32" names="model.4.m.0.cv2.conv.weight">
                    <dim>32</dim>
                    <dim>32</dim>
                    <dim>3</dim>
                    <dim>3</dim>
                </port>
            </output>
        </layer>
        <layer id="55" name="Convolution_612" type="Convolution" version="opset1">
            <data strides="1, 1" dilations="1, 1" pads_begin="1, 1" pads_end="1, 1" auto_pad="explicit"/>
            <rt_info>
                <attribute name="fused_names" version="0" value="Convolution_612"/>
            </rt_info>
            <input>
                <port id="0" precision="FP32">
                    <dim>1</dim>
                    <dim>32</dim>
                    <dim>80</dim>
                    <dim>80</dim>
                </port>
                <port id="1" precision="FP32">
                    <dim>32</dim>
                    <dim>32</dim>
                    <dim>3</dim>
                    <dim>3</dim>
                </port>
            </input>
            <output>
                <port id="2" precision="FP32">
                    <dim>1</dim>
                    <dim>32</dim>
                    <dim>80</dim>
                    <dim>80</dim>
                </port>
            </output>
        </layer>
        <layer id="56" name="Reshape_632" type="Const" version="opset1">
            <data element_type="f32" shape="1, 32, 1, 1" offset="213928" size="128"/>
            <output>
                <port id="0" precision="FP32">
                    <dim>1</dim>
                    <dim>32</dim>
                    <dim>1</dim>
                    <dim>1</dim>
                </port>
            </output>
        </layer>
        <layer id="57" name="/model.4/m.0/cv2/conv/Conv_output_0" type="Add" version="opset1">
            <data auto_broadcast="numpy"/>
            <rt_info>
                <attribute name="fused_names" version="0"
                           value="/model.4/m.0/cv2/conv/Conv_output_0, Concat_631, Reshape_632"/>
            </rt_info>
            <input>
                <port id="0" precision="FP32">
                    <dim>1</dim>
                    <dim>32</dim>
                    <dim>80</dim>
                    <dim>80</dim>
                </port>
                <port id="1" precision="FP32">
                    <dim>1</dim>
                    <dim>32</dim>
                    <dim>1</dim>
                    <dim>1</dim>
                </port>
            </input>
            <output>
                <port id="2" precision="FP32" names="/model.4/m.0/cv2/conv/Conv_output_0">
                    <dim>1</dim>
                    <dim>32</dim>
                    <dim>80</dim>
                    <dim>80</dim>
                </port>
            </output>
        </layer>
        <layer id="58" name="/model.4/m.0/cv2/act/Mul_output_0" type="Swish" version="opset4">
            <rt_info>
                <attribute name="fused_names" version="0"
                           value="/model.4/m.0/cv2/act/Mul_output_0, /model.4/m.0/cv2/act/Sigmoid_output_0"/>
            </rt_info>
            <input>
                <port id="0" precision="FP32">
                    <dim>1</dim>
                    <dim>32</dim>
                    <dim>80</dim>
                    <dim>80</dim>
                </port>
            </input>
            <output>
                <port id="1" precision="FP32" names="/model.4/m.0/cv2/act/Mul_output_0">
                    <dim>1</dim>
                    <dim>32</dim>
                    <dim>80</dim>
                    <dim>80</dim>
                </port>
            </output>
        </layer>
        <layer id="59" name="/model.4/m.0/Add_output_0" type="Add" version="opset1">
            <data auto_broadcast="numpy"/>
            <rt_info>
                <attribute name="fused_names" version="0" value="/model.4/m.0/Add_output_0"/>
            </rt_info>
            <input>
                <port id="0" precision="FP32">
                    <dim>1</dim>
                    <dim>32</dim>
                    <dim>80</dim>
                    <dim>80</dim>
                </port>
                <port id="1" precision="FP32">
                    <dim>1</dim>
                    <dim>32</dim>
                    <dim>80</dim>
                    <dim>80</dim>
                </port>
            </input>
            <output>
                <port id="2" precision="FP32" names="/model.4/m.0/Add_output_0">
                    <dim>1</dim>
                    <dim>32</dim>
                    <dim>80</dim>
                    <dim>80</dim>
                </port>
            </output>
        </layer>
        <layer id="60" name="model.4.m.1.cv1.conv.weight" type="Const" version="opset1">
            <data element_type="f32" shape="32, 32, 3, 3" offset="214056" size="36864"/>
            <rt_info>
                <attribute name="fused_names" version="0" value="model.4.m.1.cv1.conv.weight"/>
            </rt_info>
            <output>
                <port id="0" precision="FP32" names="model.4.m.1.cv1.conv.weight">
                    <dim>32</dim>
                    <dim>32</dim>
                    <dim>3</dim>
                    <dim>3</dim>
                </port>
            </output>
        </layer>
        <layer id="61" name="Convolution_663" type="Convolution" version="opset1">
            <data strides="1, 1" dilations="1, 1" pads_begin="1, 1" pads_end="1, 1" auto_pad="explicit"/>
            <rt_info>
                <attribute name="fused_names" version="0" value="Convolution_663"/>
            </rt_info>
            <input>
                <port id="0" precision="FP32">
                    <dim>1</dim>
                    <dim>32</dim>
                    <dim>80</dim>
                    <dim>80</dim>
                </port>
                <port id="1" precision="FP32">
                    <dim>32</dim>
                    <dim>32</dim>
                    <dim>3</dim>
                    <dim>3</dim>
                </port>
            </input>
            <output>
                <port id="2" precision="FP32">
                    <dim>1</dim>
                    <dim>32</dim>
                    <dim>80</dim>
                    <dim>80</dim>
                </port>
            </output>
        </layer>
        <layer id="62" name="Reshape_683" type="Const" version="opset1">
            <data element_type="f32" shape="1, 32, 1, 1" offset="250920" size="128"/>
            <output>
                <port id="0" precision="FP32">
                    <dim>1</dim>
                    <dim>32</dim>
                    <dim>1</dim>
                    <dim>1</dim>
                </port>
            </output>
        </layer>
        <layer id="63" name="/model.4/m.1/cv1/conv/Conv_output_0" type="Add" version="opset1">
            <data auto_broadcast="numpy"/>
            <rt_info>
                <attribute name="fused_names" version="0"
                           value="/model.4/m.1/cv1/conv/Conv_output_0, Concat_682, Reshape_683"/>
            </rt_info>
            <input>
                <port id="0" precision="FP32">
                    <dim>1</dim>
                    <dim>32</dim>
                    <dim>80</dim>
                    <dim>80</dim>
                </port>
                <port id="1" precision="FP32">
                    <dim>1</dim>
                    <dim>32</dim>
                    <dim>1</dim>
                    <dim>1</dim>
                </port>
            </input>
            <output>
                <port id="2" precision="FP32" names="/model.4/m.1/cv1/conv/Conv_output_0">
                    <dim>1</dim>
                    <dim>32</dim>
                    <dim>80</dim>
                    <dim>80</dim>
                </port>
            </output>
        </layer>
        <layer id="64" name="/model.4/m.1/cv1/act/Mul_output_0" type="Swish" version="opset4">
            <rt_info>
                <attribute name="fused_names" version="0"
                           value="/model.4/m.1/cv1/act/Mul_output_0, /model.4/m.1/cv1/act/Sigmoid_output_0"/>
            </rt_info>
            <input>
                <port id="0" precision="FP32">
                    <dim>1</dim>
                    <dim>32</dim>
                    <dim>80</dim>
                    <dim>80</dim>
                </port>
            </input>
            <output>
                <port id="1" precision="FP32" names="/model.4/m.1/cv1/act/Mul_output_0">
                    <dim>1</dim>
                    <dim>32</dim>
                    <dim>80</dim>
                    <dim>80</dim>
                </port>
            </output>
        </layer>
        <layer id="65" name="model.4.m.1.cv2.conv.weight" type="Const" version="opset1">
            <data element_type="f32" shape="32, 32, 3, 3" offset="251048" size="36864"/>
            <rt_info>
                <attribute name="fused_names" version="0" value="model.4.m.1.cv2.conv.weight"/>
            </rt_info>
            <output>
                <port id="0" precision="FP32" names="model.4.m.1.cv2.conv.weight">
                    <dim>32</dim>
                    <dim>32</dim>
                    <dim>3</dim>
                    <dim>3</dim>
                </port>
            </output>
        </layer>
        <layer id="66" name="Convolution_713" type="Convolution" version="opset1">
            <data strides="1, 1" dilations="1, 1" pads_begin="1, 1" pads_end="1, 1" auto_pad="explicit"/>
            <rt_info>
                <attribute name="fused_names" version="0" value="Convolution_713"/>
            </rt_info>
            <input>
                <port id="0" precision="FP32">
                    <dim>1</dim>
                    <dim>32</dim>
                    <dim>80</dim>
                    <dim>80</dim>
                </port>
                <port id="1" precision="FP32">
                    <dim>32</dim>
                    <dim>32</dim>
                    <dim>3</dim>
                    <dim>3</dim>
                </port>
            </input>
            <output>
                <port id="2" precision="FP32">
                    <dim>1</dim>
                    <dim>32</dim>
                    <dim>80</dim>
                    <dim>80</dim>
                </port>
            </output>
        </layer>
        <layer id="67" name="Reshape_733" type="Const" version="opset1">
            <data element_type="f32" shape="1, 32, 1, 1" offset="287912" size="128"/>
            <output>
                <port id="0" precision="FP32">
                    <dim>1</dim>
                    <dim>32</dim>
                    <dim>1</dim>
                    <dim>1</dim>
                </port>
            </output>
        </layer>
        <layer id="68" name="/model.4/m.1/cv2/conv/Conv_output_0" type="Add" version="opset1">
            <data auto_broadcast="numpy"/>
            <rt_info>
                <attribute name="fused_names" version="0"
                           value="/model.4/m.1/cv2/conv/Conv_output_0, Concat_732, Reshape_733"/>
            </rt_info>
            <input>
                <port id="0" precision="FP32">
                    <dim>1</dim>
                    <dim>32</dim>
                    <dim>80</dim>
                    <dim>80</dim>
                </port>
                <port id="1" precision="FP32">
                    <dim>1</dim>
                    <dim>32</dim>
                    <dim>1</dim>
                    <dim>1</dim>
                </port>
            </input>
            <output>
                <port id="2" precision="FP32" names="/model.4/m.1/cv2/conv/Conv_output_0">
                    <dim>1</dim>
                    <dim>32</dim>
                    <dim>80</dim>
                    <dim>80</dim>
                </port>
            </output>
        </layer>
        <layer id="69" name="/model.4/m.1/cv2/act/Mul_output_0" type="Swish" version="opset4">
            <rt_info>
                <attribute name="fused_names" version="0"
                           value="/model.4/m.1/cv2/act/Mul_output_0, /model.4/m.1/cv2/act/Sigmoid_output_0"/>
            </rt_info>
            <input>
                <port id="0" precision="FP32">
                    <dim>1</dim>
                    <dim>32</dim>
                    <dim>80</dim>
                    <dim>80</dim>
                </port>
            </input>
            <output>
                <port id="1" precision="FP32" names="/model.4/m.1/cv2/act/Mul_output_0">
                    <dim>1</dim>
                    <dim>32</dim>
                    <dim>80</dim>
                    <dim>80</dim>
                </port>
            </output>
        </layer>
        <layer id="70" name="/model.4/m.1/Add_output_0" type="Add" version="opset1">
            <data auto_broadcast="numpy"/>
            <rt_info>
                <attribute name="fused_names" version="0" value="/model.4/m.1/Add_output_0"/>
            </rt_info>
            <input>
                <port id="0" precision="FP32">
                    <dim>1</dim>
                    <dim>32</dim>
                    <dim>80</dim>
                    <dim>80</dim>
                </port>
                <port id="1" precision="FP32">
                    <dim>1</dim>
                    <dim>32</dim>
                    <dim>80</dim>
                    <dim>80</dim>
                </port>
            </input>
            <output>
                <port id="2" precision="FP32" names="/model.4/m.1/Add_output_0">
                    <dim>1</dim>
                    <dim>32</dim>
                    <dim>80</dim>
                    <dim>80</dim>
                </port>
            </output>
        </layer>
        <layer id="71" name="/model.4/Concat_output_0" type="Concat" version="opset1">
            <data axis="1"/>
            <rt_info>
                <attribute name="fused_names" version="0" value="/model.4/Concat_output_0"/>
            </rt_info>
            <input>
                <port id="0" precision="FP32">
                    <dim>1</dim>
                    <dim>32</dim>
                    <dim>80</dim>
                    <dim>80</dim>
                </port>
                <port id="1" precision="FP32">
                    <dim>1</dim>
                    <dim>32</dim>
                    <dim>80</dim>
                    <dim>80</dim>
                </port>
                <port id="2" precision="FP32">
                    <dim>1</dim>
                    <dim>32</dim>
                    <dim>80</dim>
                    <dim>80</dim>
                </port>
                <port id="3" precision="FP32">
                    <dim>1</dim>
                    <dim>32</dim>
                    <dim>80</dim>
                    <dim>80</dim>
                </port>
            </input>
            <output>
                <port id="4" precision="FP32" names="/model.4/Concat_output_0">
                    <dim>1</dim>
                    <dim>128</dim>
                    <dim>80</dim>
                    <dim>80</dim>
                </port>
            </output>
        </layer>
        <layer id="72" name="model.4.cv2.conv.weight" type="Const" version="opset1">
            <data element_type="f32" shape="64, 128, 1, 1" offset="288040" size="32768"/>
            <rt_info>
                <attribute name="fused_names" version="0" value="model.4.cv2.conv.weight"/>
            </rt_info>
            <output>
                <port id="0" precision="FP32" names="model.4.cv2.conv.weight">
                    <dim>64</dim>
                    <dim>128</dim>
                    <dim>1</dim>
                    <dim>1</dim>
                </port>
            </output>
        </layer>
        <layer id="73" name="Convolution_765" type="Convolution" version="opset1">
            <data strides="1, 1" dilations="1, 1" pads_begin="0, 0" pads_end="0, 0" auto_pad="explicit"/>
            <rt_info>
                <attribute name="fused_names" version="0" value="Convolution_765"/>
            </rt_info>
            <input>
                <port id="0" precision="FP32">
                    <dim>1</dim>
                    <dim>128</dim>
                    <dim>80</dim>
                    <dim>80</dim>
                </port>
                <port id="1" precision="FP32">
                    <dim>64</dim>
                    <dim>128</dim>
                    <dim>1</dim>
                    <dim>1</dim>
                </port>
            </input>
            <output>
                <port id="2" precision="FP32">
                    <dim>1</dim>
                    <dim>64</dim>
                    <dim>80</dim>
                    <dim>80</dim>
                </port>
            </output>
        </layer>
        <layer id="74" name="Reshape_785" type="Const" version="opset1">
            <data element_type="f32" shape="1, 64, 1, 1" offset="320808" size="256"/>
            <output>
                <port id="0" precision="FP32">
                    <dim>1</dim>
                    <dim>64</dim>
                    <dim>1</dim>
                    <dim>1</dim>
                </port>
            </output>
        </layer>
        <layer id="75" name="/model.4/cv2/conv/Conv_output_0" type="Add" version="opset1">
            <data auto_broadcast="numpy"/>
            <rt_info>
                <attribute name="fused_names" version="0"
                           value="/model.4/cv2/conv/Conv_output_0, Concat_784, Reshape_785"/>
            </rt_info>
            <input>
                <port id="0" precision="FP32">
                    <dim>1</dim>
                    <dim>64</dim>
                    <dim>80</dim>
                    <dim>80</dim>
                </port>
                <port id="1" precision="FP32">
                    <dim>1</dim>
                    <dim>64</dim>
                    <dim>1</dim>
                    <dim>1</dim>
                </port>
            </input>
            <output>
                <port id="2" precision="FP32" names="/model.4/cv2/conv/Conv_output_0">
                    <dim>1</dim>
                    <dim>64</dim>
                    <dim>80</dim>
                    <dim>80</dim>
                </port>
            </output>
        </layer>
        <layer id="76" name="/model.4/cv2/act/Mul_output_0" type="Swish" version="opset4">
            <rt_info>
                <attribute name="fused_names" version="0"
                           value="/model.4/cv2/act/Mul_output_0, /model.4/cv2/act/Sigmoid_output_0"/>
            </rt_info>
            <input>
                <port id="0" precision="FP32">
                    <dim>1</dim>
                    <dim>64</dim>
                    <dim>80</dim>
                    <dim>80</dim>
                </port>
            </input>
            <output>
                <port id="1" precision="FP32" names="/model.4/cv2/act/Mul_output_0">
                    <dim>1</dim>
                    <dim>64</dim>
                    <dim>80</dim>
                    <dim>80</dim>
                </port>
            </output>
        </layer>
        <layer id="77" name="model.5.conv.weight" type="Const" version="opset1">
            <data element_type="f32" shape="128, 64, 3, 3" offset="321064" size="294912"/>
            <rt_info>
                <attribute name="fused_names" version="0" value="model.5.conv.weight"/>
            </rt_info>
            <output>
                <port id="0" precision="FP32" names="model.5.conv.weight">
                    <dim>128</dim>
                    <dim>64</dim>
                    <dim>3</dim>
                    <dim>3</dim>
                </port>
            </output>
        </layer>
        <layer id="78" name="Convolution_815" type="Convolution" version="opset1">
            <data strides="2, 2" dilations="1, 1" pads_begin="1, 1" pads_end="1, 1" auto_pad="explicit"/>
            <rt_info>
                <attribute name="fused_names" version="0" value="Convolution_815"/>
            </rt_info>
            <input>
                <port id="0" precision="FP32">
                    <dim>1</dim>
                    <dim>64</dim>
                    <dim>80</dim>
                    <dim>80</dim>
                </port>
                <port id="1" precision="FP32">
                    <dim>128</dim>
                    <dim>64</dim>
                    <dim>3</dim>
                    <dim>3</dim>
                </port>
            </input>
            <output>
                <port id="2" precision="FP32">
                    <dim>1</dim>
                    <dim>128</dim>
                    <dim>40</dim>
                    <dim>40</dim>
                </port>
            </output>
        </layer>
        <layer id="79" name="Reshape_835" type="Const" version="opset1">
            <data element_type="f32" shape="1, 128, 1, 1" offset="615976" size="512"/>
            <output>
                <port id="0" precision="FP32">
                    <dim>1</dim>
                    <dim>128</dim>
                    <dim>1</dim>
                    <dim>1</dim>
                </port>
            </output>
        </layer>
        <layer id="80" name="/model.5/conv/Conv_output_0" type="Add" version="opset1">
            <data auto_broadcast="numpy"/>
            <rt_info>
                <attribute name="fused_names" version="0" value="/model.5/conv/Conv_output_0, Concat_834, Reshape_835"/>
            </rt_info>
            <input>
                <port id="0" precision="FP32">
                    <dim>1</dim>
                    <dim>128</dim>
                    <dim>40</dim>
                    <dim>40</dim>
                </port>
                <port id="1" precision="FP32">
                    <dim>1</dim>
                    <dim>128</dim>
                    <dim>1</dim>
                    <dim>1</dim>
                </port>
            </input>
            <output>
                <port id="2" precision="FP32" names="/model.5/conv/Conv_output_0">
                    <dim>1</dim>
                    <dim>128</dim>
                    <dim>40</dim>
                    <dim>40</dim>
                </port>
            </output>
        </layer>
        <layer id="81" name="/model.5/act/Mul_output_0" type="Swish" version="opset4">
            <rt_info>
                <attribute name="fused_names" version="0"
                           value="/model.5/act/Mul_output_0, /model.5/act/Sigmoid_output_0"/>
            </rt_info>
            <input>
                <port id="0" precision="FP32">
                    <dim>1</dim>
                    <dim>128</dim>
                    <dim>40</dim>
                    <dim>40</dim>
                </port>
            </input>
            <output>
                <port id="1" precision="FP32" names="/model.5/act/Mul_output_0">
                    <dim>1</dim>
                    <dim>128</dim>
                    <dim>40</dim>
                    <dim>40</dim>
                </port>
            </output>
        </layer>
        <layer id="82" name="model.6.cv1.conv.weight" type="Const" version="opset1">
            <data element_type="f32" shape="128, 128, 1, 1" offset="616488" size="65536"/>
            <rt_info>
                <attribute name="fused_names" version="0" value="model.6.cv1.conv.weight"/>
            </rt_info>
            <output>
                <port id="0" precision="FP32" names="model.6.cv1.conv.weight">
                    <dim>128</dim>
                    <dim>128</dim>
                    <dim>1</dim>
                    <dim>1</dim>
                </port>
            </output>
        </layer>
        <layer id="83" name="Convolution_865" type="Convolution" version="opset1">
            <data strides="1, 1" dilations="1, 1" pads_begin="0, 0" pads_end="0, 0" auto_pad="explicit"/>
            <rt_info>
                <attribute name="fused_names" version="0" value="Convolution_865"/>
            </rt_info>
            <input>
                <port id="0" precision="FP32">
                    <dim>1</dim>
                    <dim>128</dim>
                    <dim>40</dim>
                    <dim>40</dim>
                </port>
                <port id="1" precision="FP32">
                    <dim>128</dim>
                    <dim>128</dim>
                    <dim>1</dim>
                    <dim>1</dim>
                </port>
            </input>
            <output>
                <port id="2" precision="FP32">
                    <dim>1</dim>
                    <dim>128</dim>
                    <dim>40</dim>
                    <dim>40</dim>
                </port>
            </output>
        </layer>
        <layer id="84" name="Reshape_885" type="Const" version="opset1">
            <data element_type="f32" shape="1, 128, 1, 1" offset="682024" size="512"/>
            <output>
                <port id="0" precision="FP32">
                    <dim>1</dim>
                    <dim>128</dim>
                    <dim>1</dim>
                    <dim>1</dim>
                </port>
            </output>
        </layer>
        <layer id="85" name="/model.6/cv1/conv/Conv_output_0" type="Add" version="opset1">
            <data auto_broadcast="numpy"/>
            <rt_info>
                <attribute name="fused_names" version="0"
                           value="/model.6/cv1/conv/Conv_output_0, Concat_884, Reshape_885"/>
            </rt_info>
            <input>
                <port id="0" precision="FP32">
                    <dim>1</dim>
                    <dim>128</dim>
                    <dim>40</dim>
                    <dim>40</dim>
                </port>
                <port id="1" precision="FP32">
                    <dim>1</dim>
                    <dim>128</dim>
                    <dim>1</dim>
                    <dim>1</dim>
                </port>
            </input>
            <output>
                <port id="2" precision="FP32" names="/model.6/cv1/conv/Conv_output_0">
                    <dim>1</dim>
                    <dim>128</dim>
                    <dim>40</dim>
                    <dim>40</dim>
                </port>
            </output>
        </layer>
        <layer id="86" name="/model.6/cv1/act/Mul_output_0" type="Swish" version="opset4">
            <rt_info>
                <attribute name="fused_names" version="0"
                           value="/model.6/cv1/act/Mul_output_0, /model.6/cv1/act/Sigmoid_output_0"/>
            </rt_info>
            <input>
                <port id="0" precision="FP32">
                    <dim>1</dim>
                    <dim>128</dim>
                    <dim>40</dim>
                    <dim>40</dim>
                </port>
            </input>
            <output>
                <port id="1" precision="FP32" names="/model.6/cv1/act/Mul_output_0">
                    <dim>1</dim>
                    <dim>128</dim>
                    <dim>40</dim>
                    <dim>40</dim>
                </port>
            </output>
        </layer>
        <layer id="87" name="Constant_916" type="Const" version="opset1">
            <data element_type="i64" shape="" offset="24576" size="8"/>
            <rt_info>
                <attribute name="fused_names" version="0" value="Constant_916"/>
            </rt_info>
            <output>
                <port id="0" precision="I64"/>
            </output>
        </layer>
        <layer id="88" name="onnx::Split_210" type="Const" version="opset1">
            <data element_type="i64" shape="2" offset="682536" size="16"/>
            <rt_info>
                <attribute name="fused_names" version="0" value="onnx::Split_210"/>
            </rt_info>
            <output>
                <port id="0" precision="I64" names="onnx::Split_210">
                    <dim>2</dim>
                </port>
            </output>
        </layer>
        <layer id="89" name="/model.6/Split_output_1" type="VariadicSplit" version="opset1">
            <rt_info>
                <attribute name="fused_names" version="0" value="/model.6/Split_output_1"/>
            </rt_info>
            <input>
                <port id="0" precision="FP32">
                    <dim>1</dim>
                    <dim>128</dim>
                    <dim>40</dim>
                    <dim>40</dim>
                </port>
                <port id="1" precision="I64"/>
                <port id="2" precision="I64">
                    <dim>2</dim>
                </port>
            </input>
            <output>
                <port id="3" precision="FP32" names="/model.6/Split_output_0">
                    <dim>1</dim>
                    <dim>64</dim>
                    <dim>40</dim>
                    <dim>40</dim>
                </port>
                <port id="4" precision="FP32" names="/model.6/Split_output_1">
                    <dim>1</dim>
                    <dim>64</dim>
                    <dim>40</dim>
                    <dim>40</dim>
                </port>
            </output>
        </layer>
        <layer id="90" name="model.6.m.0.cv1.conv.weight" type="Const" version="opset1">
            <data element_type="f32" shape="64, 64, 3, 3" offset="682552" size="147456"/>
            <rt_info>
                <attribute name="fused_names" version="0" value="model.6.m.0.cv1.conv.weight"/>
            </rt_info>
            <output>
                <port id="0" precision="FP32" names="model.6.m.0.cv1.conv.weight">
                    <dim>64</dim>
                    <dim>64</dim>
                    <dim>3</dim>
                    <dim>3</dim>
                </port>
            </output>
        </layer>
        <layer id="91" name="Convolution_918" type="Convolution" version="opset1">
            <data strides="1, 1" dilations="1, 1" pads_begin="1, 1" pads_end="1, 1" auto_pad="explicit"/>
            <rt_info>
                <attribute name="fused_names" version="0" value="Convolution_918"/>
            </rt_info>
            <input>
                <port id="0" precision="FP32">
                    <dim>1</dim>
                    <dim>64</dim>
                    <dim>40</dim>
                    <dim>40</dim>
                </port>
                <port id="1" precision="FP32">
                    <dim>64</dim>
                    <dim>64</dim>
                    <dim>3</dim>
                    <dim>3</dim>
                </port>
            </input>
            <output>
                <port id="2" precision="FP32">
                    <dim>1</dim>
                    <dim>64</dim>
                    <dim>40</dim>
                    <dim>40</dim>
                </port>
            </output>
        </layer>
        <layer id="92" name="Reshape_938" type="Const" version="opset1">
            <data element_type="f32" shape="1, 64, 1, 1" offset="830008" size="256"/>
            <output>
                <port id="0" precision="FP32">
                    <dim>1</dim>
                    <dim>64</dim>
                    <dim>1</dim>
                    <dim>1</dim>
                </port>
            </output>
        </layer>
        <layer id="93" name="/model.6/m.0/cv1/conv/Conv_output_0" type="Add" version="opset1">
            <data auto_broadcast="numpy"/>
            <rt_info>
                <attribute name="fused_names" version="0"
                           value="/model.6/m.0/cv1/conv/Conv_output_0, Concat_937, Reshape_938"/>
            </rt_info>
            <input>
                <port id="0" precision="FP32">
                    <dim>1</dim>
                    <dim>64</dim>
                    <dim>40</dim>
                    <dim>40</dim>
                </port>
                <port id="1" precision="FP32">
                    <dim>1</dim>
                    <dim>64</dim>
                    <dim>1</dim>
                    <dim>1</dim>
                </port>
            </input>
            <output>
                <port id="2" precision="FP32" names="/model.6/m.0/cv1/conv/Conv_output_0">
                    <dim>1</dim>
                    <dim>64</dim>
                    <dim>40</dim>
                    <dim>40</dim>
                </port>
            </output>
        </layer>
        <layer id="94" name="/model.6/m.0/cv1/act/Mul_output_0" type="Swish" version="opset4">
            <rt_info>
                <attribute name="fused_names" version="0"
                           value="/model.6/m.0/cv1/act/Mul_output_0, /model.6/m.0/cv1/act/Sigmoid_output_0"/>
            </rt_info>
            <input>
                <port id="0" precision="FP32">
                    <dim>1</dim>
                    <dim>64</dim>
                    <dim>40</dim>
                    <dim>40</dim>
                </port>
            </input>
            <output>
                <port id="1" precision="FP32" names="/model.6/m.0/cv1/act/Mul_output_0">
                    <dim>1</dim>
                    <dim>64</dim>
                    <dim>40</dim>
                    <dim>40</dim>
                </port>
            </output>
        </layer>
        <layer id="95" name="model.6.m.0.cv2.conv.weight" type="Const" version="opset1">
            <data element_type="f32" shape="64, 64, 3, 3" offset="830264" size="147456"/>
            <rt_info>
                <attribute name="fused_names" version="0" value="model.6.m.0.cv2.conv.weight"/>
            </rt_info>
            <output>
                <port id="0" precision="FP32" names="model.6.m.0.cv2.conv.weight">
                    <dim>64</dim>
                    <dim>64</dim>
                    <dim>3</dim>
                    <dim>3</dim>
                </port>
            </output>
        </layer>
        <layer id="96" name="Convolution_968" type="Convolution" version="opset1">
            <data strides="1, 1" dilations="1, 1" pads_begin="1, 1" pads_end="1, 1" auto_pad="explicit"/>
            <rt_info>
                <attribute name="fused_names" version="0" value="Convolution_968"/>
            </rt_info>
            <input>
                <port id="0" precision="FP32">
                    <dim>1</dim>
                    <dim>64</dim>
                    <dim>40</dim>
                    <dim>40</dim>
                </port>
                <port id="1" precision="FP32">
                    <dim>64</dim>
                    <dim>64</dim>
                    <dim>3</dim>
                    <dim>3</dim>
                </port>
            </input>
            <output>
                <port id="2" precision="FP32">
                    <dim>1</dim>
                    <dim>64</dim>
                    <dim>40</dim>
                    <dim>40</dim>
                </port>
            </output>
        </layer>
        <layer id="97" name="Reshape_988" type="Const" version="opset1">
            <data element_type="f32" shape="1, 64, 1, 1" offset="977720" size="256"/>
            <output>
                <port id="0" precision="FP32">
                    <dim>1</dim>
                    <dim>64</dim>
                    <dim>1</dim>
                    <dim>1</dim>
                </port>
            </output>
        </layer>
        <layer id="98" name="/model.6/m.0/cv2/conv/Conv_output_0" type="Add" version="opset1">
            <data auto_broadcast="numpy"/>
            <rt_info>
                <attribute name="fused_names" version="0"
                           value="/model.6/m.0/cv2/conv/Conv_output_0, Concat_987, Reshape_988"/>
            </rt_info>
            <input>
                <port id="0" precision="FP32">
                    <dim>1</dim>
                    <dim>64</dim>
                    <dim>40</dim>
                    <dim>40</dim>
                </port>
                <port id="1" precision="FP32">
                    <dim>1</dim>
                    <dim>64</dim>
                    <dim>1</dim>
                    <dim>1</dim>
                </port>
            </input>
            <output>
                <port id="2" precision="FP32" names="/model.6/m.0/cv2/conv/Conv_output_0">
                    <dim>1</dim>
                    <dim>64</dim>
                    <dim>40</dim>
                    <dim>40</dim>
                </port>
            </output>
        </layer>
        <layer id="99" name="/model.6/m.0/cv2/act/Mul_output_0" type="Swish" version="opset4">
            <rt_info>
                <attribute name="fused_names" version="0"
                           value="/model.6/m.0/cv2/act/Mul_output_0, /model.6/m.0/cv2/act/Sigmoid_output_0"/>
            </rt_info>
            <input>
                <port id="0" precision="FP32">
                    <dim>1</dim>
                    <dim>64</dim>
                    <dim>40</dim>
                    <dim>40</dim>
                </port>
            </input>
            <output>
                <port id="1" precision="FP32" names="/model.6/m.0/cv2/act/Mul_output_0">
                    <dim>1</dim>
                    <dim>64</dim>
                    <dim>40</dim>
                    <dim>40</dim>
                </port>
            </output>
        </layer>
        <layer id="100" name="/model.6/m.0/Add_output_0" type="Add" version="opset1">
            <data auto_broadcast="numpy"/>
            <rt_info>
                <attribute name="fused_names" version="0" value="/model.6/m.0/Add_output_0"/>
            </rt_info>
            <input>
                <port id="0" precision="FP32">
                    <dim>1</dim>
                    <dim>64</dim>
                    <dim>40</dim>
                    <dim>40</dim>
                </port>
                <port id="1" precision="FP32">
                    <dim>1</dim>
                    <dim>64</dim>
                    <dim>40</dim>
                    <dim>40</dim>
                </port>
            </input>
            <output>
                <port id="2" precision="FP32" names="/model.6/m.0/Add_output_0">
                    <dim>1</dim>
                    <dim>64</dim>
                    <dim>40</dim>
                    <dim>40</dim>
                </port>
            </output>
        </layer>
        <layer id="101" name="model.6.m.1.cv1.conv.weight" type="Const" version="opset1">
            <data element_type="f32" shape="64, 64, 3, 3" offset="977976" size="147456"/>
            <rt_info>
                <attribute name="fused_names" version="0" value="model.6.m.1.cv1.conv.weight"/>
            </rt_info>
            <output>
                <port id="0" precision="FP32" names="model.6.m.1.cv1.conv.weight">
                    <dim>64</dim>
                    <dim>64</dim>
                    <dim>3</dim>
                    <dim>3</dim>
                </port>
            </output>
        </layer>
        <layer id="102" name="Convolution_1019" type="Convolution" version="opset1">
            <data strides="1, 1" dilations="1, 1" pads_begin="1, 1" pads_end="1, 1" auto_pad="explicit"/>
            <rt_info>
                <attribute name="fused_names" version="0" value="Convolution_1019"/>
            </rt_info>
            <input>
                <port id="0" precision="FP32">
                    <dim>1</dim>
                    <dim>64</dim>
                    <dim>40</dim>
                    <dim>40</dim>
                </port>
                <port id="1" precision="FP32">
                    <dim>64</dim>
                    <dim>64</dim>
                    <dim>3</dim>
                    <dim>3</dim>
                </port>
            </input>
            <output>
                <port id="2" precision="FP32">
                    <dim>1</dim>
                    <dim>64</dim>
                    <dim>40</dim>
                    <dim>40</dim>
                </port>
            </output>
        </layer>
        <layer id="103" name="Reshape_1039" type="Const" version="opset1">
            <data element_type="f32" shape="1, 64, 1, 1" offset="1125432" size="256"/>
            <output>
                <port id="0" precision="FP32">
                    <dim>1</dim>
                    <dim>64</dim>
                    <dim>1</dim>
                    <dim>1</dim>
                </port>
            </output>
        </layer>
        <layer id="104" name="/model.6/m.1/cv1/conv/Conv_output_0" type="Add" version="opset1">
            <data auto_broadcast="numpy"/>
            <rt_info>
                <attribute name="fused_names" version="0"
                           value="/model.6/m.1/cv1/conv/Conv_output_0, Concat_1038, Reshape_1039"/>
            </rt_info>
            <input>
                <port id="0" precision="FP32">
                    <dim>1</dim>
                    <dim>64</dim>
                    <dim>40</dim>
                    <dim>40</dim>
                </port>
                <port id="1" precision="FP32">
                    <dim>1</dim>
                    <dim>64</dim>
                    <dim>1</dim>
                    <dim>1</dim>
                </port>
            </input>
            <output>
                <port id="2" precision="FP32" names="/model.6/m.1/cv1/conv/Conv_output_0">
                    <dim>1</dim>
                    <dim>64</dim>
                    <dim>40</dim>
                    <dim>40</dim>
                </port>
            </output>
        </layer>
        <layer id="105" name="/model.6/m.1/cv1/act/Mul_output_0" type="Swish" version="opset4">
            <rt_info>
                <attribute name="fused_names" version="0"
                           value="/model.6/m.1/cv1/act/Mul_output_0, /model.6/m.1/cv1/act/Sigmoid_output_0"/>
            </rt_info>
            <input>
                <port id="0" precision="FP32">
                    <dim>1</dim>
                    <dim>64</dim>
                    <dim>40</dim>
                    <dim>40</dim>
                </port>
            </input>
            <output>
                <port id="1" precision="FP32" names="/model.6/m.1/cv1/act/Mul_output_0">
                    <dim>1</dim>
                    <dim>64</dim>
                    <dim>40</dim>
                    <dim>40</dim>
                </port>
            </output>
        </layer>
        <layer id="106" name="model.6.m.1.cv2.conv.weight" type="Const" version="opset1">
            <data element_type="f32" shape="64, 64, 3, 3" offset="1125688" size="147456"/>
            <rt_info>
                <attribute name="fused_names" version="0" value="model.6.m.1.cv2.conv.weight"/>
            </rt_info>
            <output>
                <port id="0" precision="FP32" names="model.6.m.1.cv2.conv.weight">
                    <dim>64</dim>
                    <dim>64</dim>
                    <dim>3</dim>
                    <dim>3</dim>
                </port>
            </output>
        </layer>
        <layer id="107" name="Convolution_1069" type="Convolution" version="opset1">
            <data strides="1, 1" dilations="1, 1" pads_begin="1, 1" pads_end="1, 1" auto_pad="explicit"/>
            <rt_info>
                <attribute name="fused_names" version="0" value="Convolution_1069"/>
            </rt_info>
            <input>
                <port id="0" precision="FP32">
                    <dim>1</dim>
                    <dim>64</dim>
                    <dim>40</dim>
                    <dim>40</dim>
                </port>
                <port id="1" precision="FP32">
                    <dim>64</dim>
                    <dim>64</dim>
                    <dim>3</dim>
                    <dim>3</dim>
                </port>
            </input>
            <output>
                <port id="2" precision="FP32">
                    <dim>1</dim>
                    <dim>64</dim>
                    <dim>40</dim>
                    <dim>40</dim>
                </port>
            </output>
        </layer>
        <layer id="108" name="Reshape_1089" type="Const" version="opset1">
            <data element_type="f32" shape="1, 64, 1, 1" offset="1273144" size="256"/>
            <output>
                <port id="0" precision="FP32">
                    <dim>1</dim>
                    <dim>64</dim>
                    <dim>1</dim>
                    <dim>1</dim>
                </port>
            </output>
        </layer>
        <layer id="109" name="/model.6/m.1/cv2/conv/Conv_output_0" type="Add" version="opset1">
            <data auto_broadcast="numpy"/>
            <rt_info>
                <attribute name="fused_names" version="0"
                           value="/model.6/m.1/cv2/conv/Conv_output_0, Concat_1088, Reshape_1089"/>
            </rt_info>
            <input>
                <port id="0" precision="FP32">
                    <dim>1</dim>
                    <dim>64</dim>
                    <dim>40</dim>
                    <dim>40</dim>
                </port>
                <port id="1" precision="FP32">
                    <dim>1</dim>
                    <dim>64</dim>
                    <dim>1</dim>
                    <dim>1</dim>
                </port>
            </input>
            <output>
                <port id="2" precision="FP32" names="/model.6/m.1/cv2/conv/Conv_output_0">
                    <dim>1</dim>
                    <dim>64</dim>
                    <dim>40</dim>
                    <dim>40</dim>
                </port>
            </output>
        </layer>
        <layer id="110" name="/model.6/m.1/cv2/act/Mul_output_0" type="Swish" version="opset4">
            <rt_info>
                <attribute name="fused_names" version="0"
                           value="/model.6/m.1/cv2/act/Mul_output_0, /model.6/m.1/cv2/act/Sigmoid_output_0"/>
            </rt_info>
            <input>
                <port id="0" precision="FP32">
                    <dim>1</dim>
                    <dim>64</dim>
                    <dim>40</dim>
                    <dim>40</dim>
                </port>
            </input>
            <output>
                <port id="1" precision="FP32" names="/model.6/m.1/cv2/act/Mul_output_0">
                    <dim>1</dim>
                    <dim>64</dim>
                    <dim>40</dim>
                    <dim>40</dim>
                </port>
            </output>
        </layer>
        <layer id="111" name="/model.6/m.1/Add_output_0" type="Add" version="opset1">
            <data auto_broadcast="numpy"/>
            <rt_info>
                <attribute name="fused_names" version="0" value="/model.6/m.1/Add_output_0"/>
            </rt_info>
            <input>
                <port id="0" precision="FP32">
                    <dim>1</dim>
                    <dim>64</dim>
                    <dim>40</dim>
                    <dim>40</dim>
                </port>
                <port id="1" precision="FP32">
                    <dim>1</dim>
                    <dim>64</dim>
                    <dim>40</dim>
                    <dim>40</dim>
                </port>
            </input>
            <output>
                <port id="2" precision="FP32" names="/model.6/m.1/Add_output_0">
                    <dim>1</dim>
                    <dim>64</dim>
                    <dim>40</dim>
                    <dim>40</dim>
                </port>
            </output>
        </layer>
        <layer id="112" name="/model.6/Concat_output_0" type="Concat" version="opset1">
            <data axis="1"/>
            <rt_info>
                <attribute name="fused_names" version="0" value="/model.6/Concat_output_0"/>
            </rt_info>
            <input>
                <port id="0" precision="FP32">
                    <dim>1</dim>
                    <dim>64</dim>
                    <dim>40</dim>
                    <dim>40</dim>
                </port>
                <port id="1" precision="FP32">
                    <dim>1</dim>
                    <dim>64</dim>
                    <dim>40</dim>
                    <dim>40</dim>
                </port>
                <port id="2" precision="FP32">
                    <dim>1</dim>
                    <dim>64</dim>
                    <dim>40</dim>
                    <dim>40</dim>
                </port>
                <port id="3" precision="FP32">
                    <dim>1</dim>
                    <dim>64</dim>
                    <dim>40</dim>
                    <dim>40</dim>
                </port>
            </input>
            <output>
                <port id="4" precision="FP32" names="/model.6/Concat_output_0">
                    <dim>1</dim>
                    <dim>256</dim>
                    <dim>40</dim>
                    <dim>40</dim>
                </port>
            </output>
        </layer>
        <layer id="113" name="model.6.cv2.conv.weight" type="Const" version="opset1">
            <data element_type="f32" shape="128, 256, 1, 1" offset="1273400" size="131072"/>
            <rt_info>
                <attribute name="fused_names" version="0" value="model.6.cv2.conv.weight"/>
            </rt_info>
            <output>
                <port id="0" precision="FP32" names="model.6.cv2.conv.weight">
                    <dim>128</dim>
                    <dim>256</dim>
                    <dim>1</dim>
                    <dim>1</dim>
                </port>
            </output>
        </layer>
        <layer id="114" name="Convolution_1121" type="Convolution" version="opset1">
            <data strides="1, 1" dilations="1, 1" pads_begin="0, 0" pads_end="0, 0" auto_pad="explicit"/>
            <rt_info>
                <attribute name="fused_names" version="0" value="Convolution_1121"/>
            </rt_info>
            <input>
                <port id="0" precision="FP32">
                    <dim>1</dim>
                    <dim>256</dim>
                    <dim>40</dim>
                    <dim>40</dim>
                </port>
                <port id="1" precision="FP32">
                    <dim>128</dim>
                    <dim>256</dim>
                    <dim>1</dim>
                    <dim>1</dim>
                </port>
            </input>
            <output>
                <port id="2" precision="FP32">
                    <dim>1</dim>
                    <dim>128</dim>
                    <dim>40</dim>
                    <dim>40</dim>
                </port>
            </output>
        </layer>
        <layer id="115" name="Reshape_1141" type="Const" version="opset1">
            <data element_type="f32" shape="1, 128, 1, 1" offset="1404472" size="512"/>
            <output>
                <port id="0" precision="FP32">
                    <dim>1</dim>
                    <dim>128</dim>
                    <dim>1</dim>
                    <dim>1</dim>
                </port>
            </output>
        </layer>
        <layer id="116" name="/model.6/cv2/conv/Conv_output_0" type="Add" version="opset1">
            <data auto_broadcast="numpy"/>
            <rt_info>
                <attribute name="fused_names" version="0"
                           value="/model.6/cv2/conv/Conv_output_0, Concat_1140, Reshape_1141"/>
            </rt_info>
            <input>
                <port id="0" precision="FP32">
                    <dim>1</dim>
                    <dim>128</dim>
                    <dim>40</dim>
                    <dim>40</dim>
                </port>
                <port id="1" precision="FP32">
                    <dim>1</dim>
                    <dim>128</dim>
                    <dim>1</dim>
                    <dim>1</dim>
                </port>
            </input>
            <output>
                <port id="2" precision="FP32" names="/model.6/cv2/conv/Conv_output_0">
                    <dim>1</dim>
                    <dim>128</dim>
                    <dim>40</dim>
                    <dim>40</dim>
                </port>
            </output>
        </layer>
        <layer id="117" name="/model.6/cv2/act/Mul_output_0" type="Swish" version="opset4">
            <rt_info>
                <attribute name="fused_names" version="0"
                           value="/model.6/cv2/act/Mul_output_0, /model.6/cv2/act/Sigmoid_output_0"/>
            </rt_info>
            <input>
                <port id="0" precision="FP32">
                    <dim>1</dim>
                    <dim>128</dim>
                    <dim>40</dim>
                    <dim>40</dim>
                </port>
            </input>
            <output>
                <port id="1" precision="FP32" names="/model.6/cv2/act/Mul_output_0">
                    <dim>1</dim>
                    <dim>128</dim>
                    <dim>40</dim>
                    <dim>40</dim>
                </port>
            </output>
        </layer>
        <layer id="118" name="model.7.conv.weight" type="Const" version="opset1">
            <data element_type="f32" shape="256, 128, 3, 3" offset="1404984" size="1179648"/>
            <rt_info>
                <attribute name="fused_names" version="0" value="model.7.conv.weight"/>
            </rt_info>
            <output>
                <port id="0" precision="FP32" names="model.7.conv.weight">
                    <dim>256</dim>
                    <dim>128</dim>
                    <dim>3</dim>
                    <dim>3</dim>
                </port>
            </output>
        </layer>
        <layer id="119" name="Convolution_1171" type="Convolution" version="opset1">
            <data strides="2, 2" dilations="1, 1" pads_begin="1, 1" pads_end="1, 1" auto_pad="explicit"/>
            <rt_info>
                <attribute name="fused_names" version="0" value="Convolution_1171"/>
            </rt_info>
            <input>
                <port id="0" precision="FP32">
                    <dim>1</dim>
                    <dim>128</dim>
                    <dim>40</dim>
                    <dim>40</dim>
                </port>
                <port id="1" precision="FP32">
                    <dim>256</dim>
                    <dim>128</dim>
                    <dim>3</dim>
                    <dim>3</dim>
                </port>
            </input>
            <output>
                <port id="2" precision="FP32">
                    <dim>1</dim>
                    <dim>256</dim>
                    <dim>20</dim>
                    <dim>20</dim>
                </port>
            </output>
        </layer>
        <layer id="120" name="Reshape_1191" type="Const" version="opset1">
            <data element_type="f32" shape="1, 256, 1, 1" offset="2584632" size="1024"/>
            <output>
                <port id="0" precision="FP32">
                    <dim>1</dim>
                    <dim>256</dim>
                    <dim>1</dim>
                    <dim>1</dim>
                </port>
            </output>
        </layer>
        <layer id="121" name="/model.7/conv/Conv_output_0" type="Add" version="opset1">
            <data auto_broadcast="numpy"/>
            <rt_info>
                <attribute name="fused_names" version="0"
                           value="/model.7/conv/Conv_output_0, Concat_1190, Reshape_1191"/>
            </rt_info>
            <input>
                <port id="0" precision="FP32">
                    <dim>1</dim>
                    <dim>256</dim>
                    <dim>20</dim>
                    <dim>20</dim>
                </port>
                <port id="1" precision="FP32">
                    <dim>1</dim>
                    <dim>256</dim>
                    <dim>1</dim>
                    <dim>1</dim>
                </port>
            </input>
            <output>
                <port id="2" precision="FP32" names="/model.7/conv/Conv_output_0">
                    <dim>1</dim>
                    <dim>256</dim>
                    <dim>20</dim>
                    <dim>20</dim>
                </port>
            </output>
        </layer>
        <layer id="122" name="/model.7/act/Mul_output_0" type="Swish" version="opset4">
            <rt_info>
                <attribute name="fused_names" version="0"
                           value="/model.7/act/Mul_output_0, /model.7/act/Sigmoid_output_0"/>
            </rt_info>
            <input>
                <port id="0" precision="FP32">
                    <dim>1</dim>
                    <dim>256</dim>
                    <dim>20</dim>
                    <dim>20</dim>
                </port>
            </input>
            <output>
                <port id="1" precision="FP32" names="/model.7/act/Mul_output_0">
                    <dim>1</dim>
                    <dim>256</dim>
                    <dim>20</dim>
                    <dim>20</dim>
                </port>
            </output>
        </layer>
        <layer id="123" name="model.8.cv1.conv.weight" type="Const" version="opset1">
            <data element_type="f32" shape="256, 256, 1, 1" offset="2585656" size="262144"/>
            <rt_info>
                <attribute name="fused_names" version="0" value="model.8.cv1.conv.weight"/>
            </rt_info>
            <output>
                <port id="0" precision="FP32" names="model.8.cv1.conv.weight">
                    <dim>256</dim>
                    <dim>256</dim>
                    <dim>1</dim>
                    <dim>1</dim>
                </port>
            </output>
        </layer>
        <layer id="124" name="Convolution_1221" type="Convolution" version="opset1">
            <data strides="1, 1" dilations="1, 1" pads_begin="0, 0" pads_end="0, 0" auto_pad="explicit"/>
            <rt_info>
                <attribute name="fused_names" version="0" value="Convolution_1221"/>
            </rt_info>
            <input>
                <port id="0" precision="FP32">
                    <dim>1</dim>
                    <dim>256</dim>
                    <dim>20</dim>
                    <dim>20</dim>
                </port>
                <port id="1" precision="FP32">
                    <dim>256</dim>
                    <dim>256</dim>
                    <dim>1</dim>
                    <dim>1</dim>
                </port>
            </input>
            <output>
                <port id="2" precision="FP32">
                    <dim>1</dim>
                    <dim>256</dim>
                    <dim>20</dim>
                    <dim>20</dim>
                </port>
            </output>
        </layer>
        <layer id="125" name="Reshape_1241" type="Const" version="opset1">
            <data element_type="f32" shape="1, 256, 1, 1" offset="2847800" size="1024"/>
            <output>
                <port id="0" precision="FP32">
                    <dim>1</dim>
                    <dim>256</dim>
                    <dim>1</dim>
                    <dim>1</dim>
                </port>
            </output>
        </layer>
        <layer id="126" name="/model.8/cv1/conv/Conv_output_0" type="Add" version="opset1">
            <data auto_broadcast="numpy"/>
            <rt_info>
                <attribute name="fused_names" version="0"
                           value="/model.8/cv1/conv/Conv_output_0, Concat_1240, Reshape_1241"/>
            </rt_info>
            <input>
                <port id="0" precision="FP32">
                    <dim>1</dim>
                    <dim>256</dim>
                    <dim>20</dim>
                    <dim>20</dim>
                </port>
                <port id="1" precision="FP32">
                    <dim>1</dim>
                    <dim>256</dim>
                    <dim>1</dim>
                    <dim>1</dim>
                </port>
            </input>
            <output>
                <port id="2" precision="FP32" names="/model.8/cv1/conv/Conv_output_0">
                    <dim>1</dim>
                    <dim>256</dim>
                    <dim>20</dim>
                    <dim>20</dim>
                </port>
            </output>
        </layer>
        <layer id="127" name="/model.8/cv1/act/Mul_output_0" type="Swish" version="opset4">
            <rt_info>
                <attribute name="fused_names" version="0"
                           value="/model.8/cv1/act/Mul_output_0, /model.8/cv1/act/Sigmoid_output_0"/>
            </rt_info>
            <input>
                <port id="0" precision="FP32">
                    <dim>1</dim>
                    <dim>256</dim>
                    <dim>20</dim>
                    <dim>20</dim>
                </port>
            </input>
            <output>
                <port id="1" precision="FP32" names="/model.8/cv1/act/Mul_output_0">
                    <dim>1</dim>
                    <dim>256</dim>
                    <dim>20</dim>
                    <dim>20</dim>
                </port>
            </output>
        </layer>
        <layer id="128" name="Constant_1272" type="Const" version="opset1">
            <data element_type="i64" shape="" offset="24576" size="8"/>
            <rt_info>
                <attribute name="fused_names" version="0" value="Constant_1272"/>
            </rt_info>
            <output>
                <port id="0" precision="I64"/>
            </output>
        </layer>
        <layer id="129" name="onnx::Split_237" type="Const" version="opset1">
            <data element_type="i64" shape="2" offset="2848824" size="16"/>
            <rt_info>
                <attribute name="fused_names" version="0" value="onnx::Split_237"/>
            </rt_info>
            <output>
                <port id="0" precision="I64" names="onnx::Split_237">
                    <dim>2</dim>
                </port>
            </output>
        </layer>
        <layer id="130" name="/model.8/Split_output_1" type="VariadicSplit" version="opset1">
            <rt_info>
                <attribute name="fused_names" version="0" value="/model.8/Split_output_1"/>
            </rt_info>
            <input>
                <port id="0" precision="FP32">
                    <dim>1</dim>
                    <dim>256</dim>
                    <dim>20</dim>
                    <dim>20</dim>
                </port>
                <port id="1" precision="I64"/>
                <port id="2" precision="I64">
                    <dim>2</dim>
                </port>
            </input>
            <output>
                <port id="3" precision="FP32" names="/model.8/Split_output_0">
                    <dim>1</dim>
                    <dim>128</dim>
                    <dim>20</dim>
                    <dim>20</dim>
                </port>
                <port id="4" precision="FP32" names="/model.8/Split_output_1">
                    <dim>1</dim>
                    <dim>128</dim>
                    <dim>20</dim>
                    <dim>20</dim>
                </port>
            </output>
        </layer>
        <layer id="131" name="model.8.m.0.cv1.conv.weight" type="Const" version="opset1">
            <data element_type="f32" shape="128, 128, 3, 3" offset="2848840" size="589824"/>
            <rt_info>
                <attribute name="fused_names" version="0" value="model.8.m.0.cv1.conv.weight"/>
            </rt_info>
            <output>
                <port id="0" precision="FP32" names="model.8.m.0.cv1.conv.weight">
                    <dim>128</dim>
                    <dim>128</dim>
                    <dim>3</dim>
                    <dim>3</dim>
                </port>
            </output>
        </layer>
        <layer id="132" name="Convolution_1274" type="Convolution" version="opset1">
            <data strides="1, 1" dilations="1, 1" pads_begin="1, 1" pads_end="1, 1" auto_pad="explicit"/>
            <rt_info>
                <attribute name="fused_names" version="0" value="Convolution_1274"/>
            </rt_info>
            <input>
                <port id="0" precision="FP32">
                    <dim>1</dim>
                    <dim>128</dim>
                    <dim>20</dim>
                    <dim>20</dim>
                </port>
                <port id="1" precision="FP32">
                    <dim>128</dim>
                    <dim>128</dim>
                    <dim>3</dim>
                    <dim>3</dim>
                </port>
            </input>
            <output>
                <port id="2" precision="FP32">
                    <dim>1</dim>
                    <dim>128</dim>
                    <dim>20</dim>
                    <dim>20</dim>
                </port>
            </output>
        </layer>
        <layer id="133" name="Reshape_1294" type="Const" version="opset1">
            <data element_type="f32" shape="1, 128, 1, 1" offset="3438664" size="512"/>
            <output>
                <port id="0" precision="FP32">
                    <dim>1</dim>
                    <dim>128</dim>
                    <dim>1</dim>
                    <dim>1</dim>
                </port>
            </output>
        </layer>
        <layer id="134" name="/model.8/m.0/cv1/conv/Conv_output_0" type="Add" version="opset1">
            <data auto_broadcast="numpy"/>
            <rt_info>
                <attribute name="fused_names" version="0"
                           value="/model.8/m.0/cv1/conv/Conv_output_0, Concat_1293, Reshape_1294"/>
            </rt_info>
            <input>
                <port id="0" precision="FP32">
                    <dim>1</dim>
                    <dim>128</dim>
                    <dim>20</dim>
                    <dim>20</dim>
                </port>
                <port id="1" precision="FP32">
                    <dim>1</dim>
                    <dim>128</dim>
                    <dim>1</dim>
                    <dim>1</dim>
                </port>
            </input>
            <output>
                <port id="2" precision="FP32" names="/model.8/m.0/cv1/conv/Conv_output_0">
                    <dim>1</dim>
                    <dim>128</dim>
                    <dim>20</dim>
                    <dim>20</dim>
                </port>
            </output>
        </layer>
        <layer id="135" name="/model.8/m.0/cv1/act/Mul_output_0" type="Swish" version="opset4">
            <rt_info>
                <attribute name="fused_names" version="0"
                           value="/model.8/m.0/cv1/act/Mul_output_0, /model.8/m.0/cv1/act/Sigmoid_output_0"/>
            </rt_info>
            <input>
                <port id="0" precision="FP32">
                    <dim>1</dim>
                    <dim>128</dim>
                    <dim>20</dim>
                    <dim>20</dim>
                </port>
            </input>
            <output>
                <port id="1" precision="FP32" names="/model.8/m.0/cv1/act/Mul_output_0">
                    <dim>1</dim>
                    <dim>128</dim>
                    <dim>20</dim>
                    <dim>20</dim>
                </port>
            </output>
        </layer>
        <layer id="136" name="model.8.m.0.cv2.conv.weight" type="Const" version="opset1">
            <data element_type="f32" shape="128, 128, 3, 3" offset="3439176" size="589824"/>
            <rt_info>
                <attribute name="fused_names" version="0" value="model.8.m.0.cv2.conv.weight"/>
            </rt_info>
            <output>
                <port id="0" precision="FP32" names="model.8.m.0.cv2.conv.weight">
                    <dim>128</dim>
                    <dim>128</dim>
                    <dim>3</dim>
                    <dim>3</dim>
                </port>
            </output>
        </layer>
        <layer id="137" name="Convolution_1324" type="Convolution" version="opset1">
            <data strides="1, 1" dilations="1, 1" pads_begin="1, 1" pads_end="1, 1" auto_pad="explicit"/>
            <rt_info>
                <attribute name="fused_names" version="0" value="Convolution_1324"/>
            </rt_info>
            <input>
                <port id="0" precision="FP32">
                    <dim>1</dim>
                    <dim>128</dim>
                    <dim>20</dim>
                    <dim>20</dim>
                </port>
                <port id="1" precision="FP32">
                    <dim>128</dim>
                    <dim>128</dim>
                    <dim>3</dim>
                    <dim>3</dim>
                </port>
            </input>
            <output>
                <port id="2" precision="FP32">
                    <dim>1</dim>
                    <dim>128</dim>
                    <dim>20</dim>
                    <dim>20</dim>
                </port>
            </output>
        </layer>
        <layer id="138" name="Reshape_1344" type="Const" version="opset1">
            <data element_type="f32" shape="1, 128, 1, 1" offset="4029000" size="512"/>
            <output>
                <port id="0" precision="FP32">
                    <dim>1</dim>
                    <dim>128</dim>
                    <dim>1</dim>
                    <dim>1</dim>
                </port>
            </output>
        </layer>
        <layer id="139" name="/model.8/m.0/cv2/conv/Conv_output_0" type="Add" version="opset1">
            <data auto_broadcast="numpy"/>
            <rt_info>
                <attribute name="fused_names" version="0"
                           value="/model.8/m.0/cv2/conv/Conv_output_0, Concat_1343, Reshape_1344"/>
            </rt_info>
            <input>
                <port id="0" precision="FP32">
                    <dim>1</dim>
                    <dim>128</dim>
                    <dim>20</dim>
                    <dim>20</dim>
                </port>
                <port id="1" precision="FP32">
                    <dim>1</dim>
                    <dim>128</dim>
                    <dim>1</dim>
                    <dim>1</dim>
                </port>
            </input>
            <output>
                <port id="2" precision="FP32" names="/model.8/m.0/cv2/conv/Conv_output_0">
                    <dim>1</dim>
                    <dim>128</dim>
                    <dim>20</dim>
                    <dim>20</dim>
                </port>
            </output>
        </layer>
        <layer id="140" name="/model.8/m.0/cv2/act/Mul_output_0" type="Swish" version="opset4">
            <rt_info>
                <attribute name="fused_names" version="0"
                           value="/model.8/m.0/cv2/act/Mul_output_0, /model.8/m.0/cv2/act/Sigmoid_output_0"/>
            </rt_info>
            <input>
                <port id="0" precision="FP32">
                    <dim>1</dim>
                    <dim>128</dim>
                    <dim>20</dim>
                    <dim>20</dim>
                </port>
            </input>
            <output>
                <port id="1" precision="FP32" names="/model.8/m.0/cv2/act/Mul_output_0">
                    <dim>1</dim>
                    <dim>128</dim>
                    <dim>20</dim>
                    <dim>20</dim>
                </port>
            </output>
        </layer>
        <layer id="141" name="/model.8/m.0/Add_output_0" type="Add" version="opset1">
            <data auto_broadcast="numpy"/>
            <rt_info>
                <attribute name="fused_names" version="0" value="/model.8/m.0/Add_output_0"/>
            </rt_info>
            <input>
                <port id="0" precision="FP32">
                    <dim>1</dim>
                    <dim>128</dim>
                    <dim>20</dim>
                    <dim>20</dim>
                </port>
                <port id="1" precision="FP32">
                    <dim>1</dim>
                    <dim>128</dim>
                    <dim>20</dim>
                    <dim>20</dim>
                </port>
            </input>
            <output>
                <port id="2" precision="FP32" names="/model.8/m.0/Add_output_0">
                    <dim>1</dim>
                    <dim>128</dim>
                    <dim>20</dim>
                    <dim>20</dim>
                </port>
            </output>
        </layer>
        <layer id="142" name="/model.8/Concat_output_0" type="Concat" version="opset1">
            <data axis="1"/>
            <rt_info>
                <attribute name="fused_names" version="0" value="/model.8/Concat_output_0"/>
            </rt_info>
            <input>
                <port id="0" precision="FP32">
                    <dim>1</dim>
                    <dim>128</dim>
                    <dim>20</dim>
                    <dim>20</dim>
                </port>
                <port id="1" precision="FP32">
                    <dim>1</dim>
                    <dim>128</dim>
                    <dim>20</dim>
                    <dim>20</dim>
                </port>
                <port id="2" precision="FP32">
                    <dim>1</dim>
                    <dim>128</dim>
                    <dim>20</dim>
                    <dim>20</dim>
                </port>
            </input>
            <output>
                <port id="3" precision="FP32" names="/model.8/Concat_output_0">
                    <dim>1</dim>
                    <dim>384</dim>
                    <dim>20</dim>
                    <dim>20</dim>
                </port>
            </output>
        </layer>
        <layer id="143" name="model.8.cv2.conv.weight" type="Const" version="opset1">
            <data element_type="f32" shape="256, 384, 1, 1" offset="4029512" size="393216"/>
            <rt_info>
                <attribute name="fused_names" version="0" value="model.8.cv2.conv.weight"/>
            </rt_info>
            <output>
                <port id="0" precision="FP32" names="model.8.cv2.conv.weight">
                    <dim>256</dim>
                    <dim>384</dim>
                    <dim>1</dim>
                    <dim>1</dim>
                </port>
            </output>
        </layer>
        <layer id="144" name="Convolution_1376" type="Convolution" version="opset1">
            <data strides="1, 1" dilations="1, 1" pads_begin="0, 0" pads_end="0, 0" auto_pad="explicit"/>
            <rt_info>
                <attribute name="fused_names" version="0" value="Convolution_1376"/>
            </rt_info>
            <input>
                <port id="0" precision="FP32">
                    <dim>1</dim>
                    <dim>384</dim>
                    <dim>20</dim>
                    <dim>20</dim>
                </port>
                <port id="1" precision="FP32">
                    <dim>256</dim>
                    <dim>384</dim>
                    <dim>1</dim>
                    <dim>1</dim>
                </port>
            </input>
            <output>
                <port id="2" precision="FP32">
                    <dim>1</dim>
                    <dim>256</dim>
                    <dim>20</dim>
                    <dim>20</dim>
                </port>
            </output>
        </layer>
        <layer id="145" name="Reshape_1396" type="Const" version="opset1">
            <data element_type="f32" shape="1, 256, 1, 1" offset="4422728" size="1024"/>
            <output>
                <port id="0" precision="FP32">
                    <dim>1</dim>
                    <dim>256</dim>
                    <dim>1</dim>
                    <dim>1</dim>
                </port>
            </output>
        </layer>
        <layer id="146" name="/model.8/cv2/conv/Conv_output_0" type="Add" version="opset1">
            <data auto_broadcast="numpy"/>
            <rt_info>
                <attribute name="fused_names" version="0"
                           value="/model.8/cv2/conv/Conv_output_0, Concat_1395, Reshape_1396"/>
            </rt_info>
            <input>
                <port id="0" precision="FP32">
                    <dim>1</dim>
                    <dim>256</dim>
                    <dim>20</dim>
                    <dim>20</dim>
                </port>
                <port id="1" precision="FP32">
                    <dim>1</dim>
                    <dim>256</dim>
                    <dim>1</dim>
                    <dim>1</dim>
                </port>
            </input>
            <output>
                <port id="2" precision="FP32" names="/model.8/cv2/conv/Conv_output_0">
                    <dim>1</dim>
                    <dim>256</dim>
                    <dim>20</dim>
                    <dim>20</dim>
                </port>
            </output>
        </layer>
        <layer id="147" name="/model.8/cv2/act/Mul_output_0" type="Swish" version="opset4">
            <rt_info>
                <attribute name="fused_names" version="0"
                           value="/model.8/cv2/act/Mul_output_0, /model.8/cv2/act/Sigmoid_output_0"/>
            </rt_info>
            <input>
                <port id="0" precision="FP32">
                    <dim>1</dim>
                    <dim>256</dim>
                    <dim>20</dim>
                    <dim>20</dim>
                </port>
            </input>
            <output>
                <port id="1" precision="FP32" names="/model.8/cv2/act/Mul_output_0">
                    <dim>1</dim>
                    <dim>256</dim>
                    <dim>20</dim>
                    <dim>20</dim>
                </port>
            </output>
        </layer>
        <layer id="148" name="model.9.cv1.conv.weight" type="Const" version="opset1">
            <data element_type="f32" shape="128, 256, 1, 1" offset="4423752" size="131072"/>
            <rt_info>
                <attribute name="fused_names" version="0" value="model.9.cv1.conv.weight"/>
            </rt_info>
            <output>
                <port id="0" precision="FP32" names="model.9.cv1.conv.weight">
                    <dim>128</dim>
                    <dim>256</dim>
                    <dim>1</dim>
                    <dim>1</dim>
                </port>
            </output>
        </layer>
        <layer id="149" name="Convolution_1426" type="Convolution" version="opset1">
            <data strides="1, 1" dilations="1, 1" pads_begin="0, 0" pads_end="0, 0" auto_pad="explicit"/>
            <rt_info>
                <attribute name="fused_names" version="0" value="Convolution_1426"/>
            </rt_info>
            <input>
                <port id="0" precision="FP32">
                    <dim>1</dim>
                    <dim>256</dim>
                    <dim>20</dim>
                    <dim>20</dim>
                </port>
                <port id="1" precision="FP32">
                    <dim>128</dim>
                    <dim>256</dim>
                    <dim>1</dim>
                    <dim>1</dim>
                </port>
            </input>
            <output>
                <port id="2" precision="FP32">
                    <dim>1</dim>
                    <dim>128</dim>
                    <dim>20</dim>
                    <dim>20</dim>
                </port>
            </output>
        </layer>
        <layer id="150" name="Reshape_1446" type="Const" version="opset1">
            <data element_type="f32" shape="1, 128, 1, 1" offset="4554824" size="512"/>
            <output>
                <port id="0" precision="FP32">
                    <dim>1</dim>
                    <dim>128</dim>
                    <dim>1</dim>
                    <dim>1</dim>
                </port>
            </output>
        </layer>
        <layer id="151" name="/model.9/cv1/conv/Conv_output_0" type="Add" version="opset1">
            <data auto_broadcast="numpy"/>
            <rt_info>
                <attribute name="fused_names" version="0"
                           value="/model.9/cv1/conv/Conv_output_0, Concat_1445, Reshape_1446"/>
            </rt_info>
            <input>
                <port id="0" precision="FP32">
                    <dim>1</dim>
                    <dim>128</dim>
                    <dim>20</dim>
                    <dim>20</dim>
                </port>
                <port id="1" precision="FP32">
                    <dim>1</dim>
                    <dim>128</dim>
                    <dim>1</dim>
                    <dim>1</dim>
                </port>
            </input>
            <output>
                <port id="2" precision="FP32" names="/model.9/cv1/conv/Conv_output_0">
                    <dim>1</dim>
                    <dim>128</dim>
                    <dim>20</dim>
                    <dim>20</dim>
                </port>
            </output>
        </layer>
        <layer id="152" name="/model.9/cv1/act/Mul_output_0" type="Swish" version="opset4">
            <rt_info>
                <attribute name="fused_names" version="0"
                           value="/model.9/cv1/act/Mul_output_0, /model.9/cv1/act/Sigmoid_output_0"/>
            </rt_info>
            <input>
                <port id="0" precision="FP32">
                    <dim>1</dim>
                    <dim>128</dim>
                    <dim>20</dim>
                    <dim>20</dim>
                </port>
            </input>
            <output>
                <port id="1" precision="FP32" names="/model.9/cv1/act/Mul_output_0">
                    <dim>1</dim>
                    <dim>128</dim>
                    <dim>20</dim>
                    <dim>20</dim>
                </port>
            </output>
        </layer>
        <layer id="153" name="/model.9/m/MaxPool_output_0" type="MaxPool" version="opset8">
            <data strides="1, 1" dilations="1, 1" pads_begin="2, 2" pads_end="2, 2" kernel="5, 5" rounding_type="floor"
                  auto_pad="explicit" index_element_type="i64" axis="0"/>
            <rt_info>
                <attribute name="fused_names" version="0" value="/model.9/m/MaxPool_output_0"/>
            </rt_info>
            <input>
                <port id="0" precision="FP32">
                    <dim>1</dim>
                    <dim>128</dim>
                    <dim>20</dim>
                    <dim>20</dim>
                </port>
            </input>
            <output>
                <port id="1" precision="FP32" names="/model.9/m/MaxPool_output_0">
                    <dim>1</dim>
                    <dim>128</dim>
                    <dim>20</dim>
                    <dim>20</dim>
                </port>
                <port id="2" precision="I64">
                    <dim>1</dim>
                    <dim>128</dim>
                    <dim>20</dim>
                    <dim>20</dim>
                </port>
            </output>
        </layer>
        <layer id="154" name="/model.9/m_1/MaxPool_output_0" type="MaxPool" version="opset8">
            <data strides="1, 1" dilations="1, 1" pads_begin="2, 2" pads_end="2, 2" kernel="5, 5" rounding_type="floor"
                  auto_pad="explicit" index_element_type="i64" axis="0"/>
            <rt_info>
                <attribute name="fused_names" version="0" value="/model.9/m_1/MaxPool_output_0"/>
            </rt_info>
            <input>
                <port id="0" precision="FP32">
                    <dim>1</dim>
                    <dim>128</dim>
                    <dim>20</dim>
                    <dim>20</dim>
                </port>
            </input>
            <output>
                <port id="1" precision="FP32" names="/model.9/m_1/MaxPool_output_0">
                    <dim>1</dim>
                    <dim>128</dim>
                    <dim>20</dim>
                    <dim>20</dim>
                </port>
                <port id="2" precision="I64">
                    <dim>1</dim>
                    <dim>128</dim>
                    <dim>20</dim>
                    <dim>20</dim>
                </port>
            </output>
        </layer>
        <layer id="155" name="/model.9/m_2/MaxPool_output_0" type="MaxPool" version="opset8">
            <data strides="1, 1" dilations="1, 1" pads_begin="2, 2" pads_end="2, 2" kernel="5, 5" rounding_type="floor"
                  auto_pad="explicit" index_element_type="i64" axis="0"/>
            <rt_info>
                <attribute name="fused_names" version="0" value="/model.9/m_2/MaxPool_output_0"/>
            </rt_info>
            <input>
                <port id="0" precision="FP32">
                    <dim>1</dim>
                    <dim>128</dim>
                    <dim>20</dim>
                    <dim>20</dim>
                </port>
            </input>
            <output>
                <port id="1" precision="FP32" names="/model.9/m_2/MaxPool_output_0">
                    <dim>1</dim>
                    <dim>128</dim>
                    <dim>20</dim>
                    <dim>20</dim>
                </port>
                <port id="2" precision="I64">
                    <dim>1</dim>
                    <dim>128</dim>
                    <dim>20</dim>
                    <dim>20</dim>
                </port>
            </output>
        </layer>
        <layer id="156" name="/model.9/Concat_output_0" type="Concat" version="opset1">
            <data axis="1"/>
            <rt_info>
                <attribute name="fused_names" version="0" value="/model.9/Concat_output_0"/>
            </rt_info>
            <input>
                <port id="0" precision="FP32">
                    <dim>1</dim>
                    <dim>128</dim>
                    <dim>20</dim>
                    <dim>20</dim>
                </port>
                <port id="1" precision="FP32">
                    <dim>1</dim>
                    <dim>128</dim>
                    <dim>20</dim>
                    <dim>20</dim>
                </port>
                <port id="2" precision="FP32">
                    <dim>1</dim>
                    <dim>128</dim>
                    <dim>20</dim>
                    <dim>20</dim>
                </port>
                <port id="3" precision="FP32">
                    <dim>1</dim>
                    <dim>128</dim>
                    <dim>20</dim>
                    <dim>20</dim>
                </port>
            </input>
            <output>
                <port id="4" precision="FP32" names="/model.9/Concat_output_0">
                    <dim>1</dim>
                    <dim>512</dim>
                    <dim>20</dim>
                    <dim>20</dim>
                </port>
            </output>
        </layer>
        <layer id="157" name="model.9.cv2.conv.weight" type="Const" version="opset1">
            <data element_type="f32" shape="256, 512, 1, 1" offset="4555336" size="524288"/>
            <rt_info>
                <attribute name="fused_names" version="0" value="model.9.cv2.conv.weight"/>
            </rt_info>
            <output>
                <port id="0" precision="FP32" names="model.9.cv2.conv.weight">
                    <dim>256</dim>
                    <dim>512</dim>
                    <dim>1</dim>
                    <dim>1</dim>
                </port>
            </output>
        </layer>
        <layer id="158" name="Convolution_1480" type="Convolution" version="opset1">
            <data strides="1, 1" dilations="1, 1" pads_begin="0, 0" pads_end="0, 0" auto_pad="explicit"/>
            <rt_info>
                <attribute name="fused_names" version="0" value="Convolution_1480"/>
            </rt_info>
            <input>
                <port id="0" precision="FP32">
                    <dim>1</dim>
                    <dim>512</dim>
                    <dim>20</dim>
                    <dim>20</dim>
                </port>
                <port id="1" precision="FP32">
                    <dim>256</dim>
                    <dim>512</dim>
                    <dim>1</dim>
                    <dim>1</dim>
                </port>
            </input>
            <output>
                <port id="2" precision="FP32">
                    <dim>1</dim>
                    <dim>256</dim>
                    <dim>20</dim>
                    <dim>20</dim>
                </port>
            </output>
        </layer>
        <layer id="159" name="Reshape_1500" type="Const" version="opset1">
            <data element_type="f32" shape="1, 256, 1, 1" offset="5079624" size="1024"/>
            <output>
                <port id="0" precision="FP32">
                    <dim>1</dim>
                    <dim>256</dim>
                    <dim>1</dim>
                    <dim>1</dim>
                </port>
            </output>
        </layer>
        <layer id="160" name="/model.9/cv2/conv/Conv_output_0" type="Add" version="opset1">
            <data auto_broadcast="numpy"/>
            <rt_info>
                <attribute name="fused_names" version="0"
                           value="/model.9/cv2/conv/Conv_output_0, Concat_1499, Reshape_1500"/>
            </rt_info>
            <input>
                <port id="0" precision="FP32">
                    <dim>1</dim>
                    <dim>256</dim>
                    <dim>20</dim>
                    <dim>20</dim>
                </port>
                <port id="1" precision="FP32">
                    <dim>1</dim>
                    <dim>256</dim>
                    <dim>1</dim>
                    <dim>1</dim>
                </port>
            </input>
            <output>
                <port id="2" precision="FP32" names="/model.9/cv2/conv/Conv_output_0">
                    <dim>1</dim>
                    <dim>256</dim>
                    <dim>20</dim>
                    <dim>20</dim>
                </port>
            </output>
        </layer>
        <layer id="161" name="/model.9/cv2/act/Mul_output_0" type="Swish" version="opset4">
            <rt_info>
                <attribute name="fused_names" version="0"
                           value="/model.9/cv2/act/Mul_output_0, /model.9/cv2/act/Sigmoid_output_0"/>
            </rt_info>
            <input>
                <port id="0" precision="FP32">
                    <dim>1</dim>
                    <dim>256</dim>
                    <dim>20</dim>
                    <dim>20</dim>
                </port>
            </input>
            <output>
                <port id="1" precision="FP32" names="/model.9/cv2/act/Mul_output_0">
                    <dim>1</dim>
                    <dim>256</dim>
                    <dim>20</dim>
                    <dim>20</dim>
                </port>
            </output>
        </layer>
        <layer id="162" name="ShapeOf_1532" type="ShapeOf" version="opset3">
            <data output_type="i64"/>
            <rt_info>
                <attribute name="fused_names" version="0" value="ShapeOf_1532"/>
            </rt_info>
            <input>
                <port id="0" precision="FP32">
                    <dim>1</dim>
                    <dim>256</dim>
                    <dim>20</dim>
                    <dim>20</dim>
                </port>
            </input>
            <output>
                <port id="1" precision="I64">
                    <dim>4</dim>
                </port>
            </output>
        </layer>
        <layer id="163" name="Convert_1533" type="Convert" version="opset1">
            <data destination_type="f32"/>
            <rt_info>
                <attribute name="fused_names" version="0" value="Convert_1533"/>
            </rt_info>
            <input>
                <port id="0" precision="I64">
                    <dim>4</dim>
                </port>
            </input>
            <output>
                <port id="1" precision="FP32">
                    <dim>4</dim>
                </port>
            </output>
        </layer>
        <layer id="164" name="/model.10/Constant_output_0" type="Const" version="opset1">
            <data element_type="f32" shape="4" offset="5080648" size="16"/>
            <rt_info>
                <attribute name="fused_names" version="0" value="/model.10/Constant_output_0"/>
            </rt_info>
            <output>
                <port id="0" precision="FP32" names="/model.10/Constant_output_0">
                    <dim>4</dim>
                </port>
            </output>
        </layer>
        <layer id="165" name="Multiply_1534" type="Multiply" version="opset1">
            <data auto_broadcast="numpy"/>
            <rt_info>
                <attribute name="fused_names" version="0" value="Multiply_1534"/>
            </rt_info>
            <input>
                <port id="0" precision="FP32">
                    <dim>4</dim>
                </port>
                <port id="1" precision="FP32">
                    <dim>4</dim>
                </port>
            </input>
            <output>
                <port id="2" precision="FP32">
                    <dim>4</dim>
                </port>
            </output>
        </layer>
        <layer id="166" name="Convert_1535" type="Convert" version="opset1">
            <data destination_type="i64"/>
            <rt_info>
                <attribute name="fused_names" version="0" value="Convert_1535"/>
            </rt_info>
            <input>
                <port id="0" precision="FP32">
                    <dim>4</dim>
                </port>
            </input>
            <output>
                <port id="1" precision="I64">
                    <dim>4</dim>
                </port>
            </output>
        </layer>
        <layer id="167" name="/model.10/Resize_output_0" type="Interpolate" version="opset4">
            <data mode="nearest" shape_calculation_mode="scales" coordinate_transformation_mode="asymmetric"
                  nearest_mode="floor" antialias="false" pads_begin="0, 0, 0, 0" pads_end="0, 0, 0, 0"
                  cube_coeff="-0.75"/>
            <rt_info>
                <attribute name="fused_names" version="0" value="/model.10/Resize_output_0"/>
            </rt_info>
            <input>
                <port id="0" precision="FP32">
                    <dim>1</dim>
                    <dim>256</dim>
                    <dim>20</dim>
                    <dim>20</dim>
                </port>
                <port id="1" precision="I64">
                    <dim>4</dim>
                </port>
                <port id="2" precision="FP32">
                    <dim>4</dim>
                </port>
            </input>
            <output>
                <port id="3" precision="FP32" names="/model.10/Resize_output_0">
                    <dim>1</dim>
                    <dim>256</dim>
                    <dim>40</dim>
                    <dim>40</dim>
                </port>
            </output>
        </layer>
        <layer id="168" name="/model.11/Concat_output_0" type="Concat" version="opset1">
            <data axis="1"/>
            <rt_info>
                <attribute name="fused_names" version="0" value="/model.11/Concat_output_0"/>
            </rt_info>
            <input>
                <port id="0" precision="FP32">
                    <dim>1</dim>
                    <dim>256</dim>
                    <dim>40</dim>
                    <dim>40</dim>
                </port>
                <port id="1" precision="FP32">
                    <dim>1</dim>
                    <dim>128</dim>
                    <dim>40</dim>
                    <dim>40</dim>
                </port>
            </input>
            <output>
                <port id="2" precision="FP32" names="/model.11/Concat_output_0">
                    <dim>1</dim>
                    <dim>384</dim>
                    <dim>40</dim>
                    <dim>40</dim>
                </port>
            </output>
        </layer>
        <layer id="169" name="model.12.cv1.conv.weight" type="Const" version="opset1">
            <data element_type="f32" shape="128, 384, 1, 1" offset="5080664" size="196608"/>
            <rt_info>
                <attribute name="fused_names" version="0" value="model.12.cv1.conv.weight"/>
            </rt_info>
            <output>
                <port id="0" precision="FP32" names="model.12.cv1.conv.weight">
                    <dim>128</dim>
                    <dim>384</dim>
                    <dim>1</dim>
                    <dim>1</dim>
                </port>
            </output>
        </layer>
        <layer id="170" name="Convolution_1538" type="Convolution" version="opset1">
            <data strides="1, 1" dilations="1, 1" pads_begin="0, 0" pads_end="0, 0" auto_pad="explicit"/>
            <rt_info>
                <attribute name="fused_names" version="0" value="Convolution_1538"/>
            </rt_info>
            <input>
                <port id="0" precision="FP32">
                    <dim>1</dim>
                    <dim>384</dim>
                    <dim>40</dim>
                    <dim>40</dim>
                </port>
                <port id="1" precision="FP32">
                    <dim>128</dim>
                    <dim>384</dim>
                    <dim>1</dim>
                    <dim>1</dim>
                </port>
            </input>
            <output>
                <port id="2" precision="FP32">
                    <dim>1</dim>
                    <dim>128</dim>
                    <dim>40</dim>
                    <dim>40</dim>
                </port>
            </output>
        </layer>
        <layer id="171" name="Reshape_1558" type="Const" version="opset1">
            <data element_type="f32" shape="1, 128, 1, 1" offset="5277272" size="512"/>
            <output>
                <port id="0" precision="FP32">
                    <dim>1</dim>
                    <dim>128</dim>
                    <dim>1</dim>
                    <dim>1</dim>
                </port>
            </output>
        </layer>
        <layer id="172" name="/model.12/cv1/conv/Conv_output_0" type="Add" version="opset1">
            <data auto_broadcast="numpy"/>
            <rt_info>
                <attribute name="fused_names" version="0"
                           value="/model.12/cv1/conv/Conv_output_0, Concat_1557, Reshape_1558"/>
            </rt_info>
            <input>
                <port id="0" precision="FP32">
                    <dim>1</dim>
                    <dim>128</dim>
                    <dim>40</dim>
                    <dim>40</dim>
                </port>
                <port id="1" precision="FP32">
                    <dim>1</dim>
                    <dim>128</dim>
                    <dim>1</dim>
                    <dim>1</dim>
                </port>
            </input>
            <output>
                <port id="2" precision="FP32" names="/model.12/cv1/conv/Conv_output_0">
                    <dim>1</dim>
                    <dim>128</dim>
                    <dim>40</dim>
                    <dim>40</dim>
                </port>
            </output>
        </layer>
        <layer id="173" name="/model.12/cv1/act/Mul_output_0" type="Swish" version="opset4">
            <rt_info>
                <attribute name="fused_names" version="0"
                           value="/model.12/cv1/act/Mul_output_0, /model.12/cv1/act/Sigmoid_output_0"/>
            </rt_info>
            <input>
                <port id="0" precision="FP32">
                    <dim>1</dim>
                    <dim>128</dim>
                    <dim>40</dim>
                    <dim>40</dim>
                </port>
            </input>
            <output>
                <port id="1" precision="FP32" names="/model.12/cv1/act/Mul_output_0">
                    <dim>1</dim>
                    <dim>128</dim>
                    <dim>40</dim>
                    <dim>40</dim>
                </port>
            </output>
        </layer>
        <layer id="174" name="Constant_1588" type="Const" version="opset1">
            <data element_type="i64" shape="" offset="24576" size="8"/>
            <rt_info>
                <attribute name="fused_names" version="0" value="Constant_1588"/>
            </rt_info>
            <output>
                <port id="0" precision="I64"/>
            </output>
        </layer>
        <layer id="175" name="/model.12/Split_output_1" type="VariadicSplit" version="opset1">
            <rt_info>
                <attribute name="fused_names" version="0" value="/model.12/Split_output_1"/>
            </rt_info>
            <input>
                <port id="0" precision="FP32">
                    <dim>1</dim>
                    <dim>128</dim>
                    <dim>40</dim>
                    <dim>40</dim>
                </port>
                <port id="1" precision="I64"/>
                <port id="2" precision="I64">
                    <dim>2</dim>
                </port>
            </input>
            <output>
                <port id="3" precision="FP32" names="/model.12/Split_output_0">
                    <dim>1</dim>
                    <dim>64</dim>
                    <dim>40</dim>
                    <dim>40</dim>
                </port>
                <port id="4" precision="FP32" names="/model.12/Split_output_1">
                    <dim>1</dim>
                    <dim>64</dim>
                    <dim>40</dim>
                    <dim>40</dim>
                </port>
            </output>
        </layer>
        <layer id="176" name="model.12.m.0.cv1.conv.weight" type="Const" version="opset1">
            <data element_type="f32" shape="64, 64, 3, 3" offset="5277784" size="147456"/>
            <rt_info>
                <attribute name="fused_names" version="0" value="model.12.m.0.cv1.conv.weight"/>
            </rt_info>
            <output>
                <port id="0" precision="FP32" names="model.12.m.0.cv1.conv.weight">
                    <dim>64</dim>
                    <dim>64</dim>
                    <dim>3</dim>
                    <dim>3</dim>
                </port>
            </output>
        </layer>
        <layer id="177" name="Convolution_1590" type="Convolution" version="opset1">
            <data strides="1, 1" dilations="1, 1" pads_begin="1, 1" pads_end="1, 1" auto_pad="explicit"/>
            <rt_info>
                <attribute name="fused_names" version="0" value="Convolution_1590"/>
            </rt_info>
            <input>
                <port id="0" precision="FP32">
                    <dim>1</dim>
                    <dim>64</dim>
                    <dim>40</dim>
                    <dim>40</dim>
                </port>
                <port id="1" precision="FP32">
                    <dim>64</dim>
                    <dim>64</dim>
                    <dim>3</dim>
                    <dim>3</dim>
                </port>
            </input>
            <output>
                <port id="2" precision="FP32">
                    <dim>1</dim>
                    <dim>64</dim>
                    <dim>40</dim>
                    <dim>40</dim>
                </port>
            </output>
        </layer>
        <layer id="178" name="Reshape_1610" type="Const" version="opset1">
            <data element_type="f32" shape="1, 64, 1, 1" offset="5425240" size="256"/>
            <output>
                <port id="0" precision="FP32">
                    <dim>1</dim>
                    <dim>64</dim>
                    <dim>1</dim>
                    <dim>1</dim>
                </port>
            </output>
        </layer>
        <layer id="179" name="/model.12/m.0/cv1/conv/Conv_output_0" type="Add" version="opset1">
            <data auto_broadcast="numpy"/>
            <rt_info>
                <attribute name="fused_names" version="0"
                           value="/model.12/m.0/cv1/conv/Conv_output_0, Concat_1609, Reshape_1610"/>
            </rt_info>
            <input>
                <port id="0" precision="FP32">
                    <dim>1</dim>
                    <dim>64</dim>
                    <dim>40</dim>
                    <dim>40</dim>
                </port>
                <port id="1" precision="FP32">
                    <dim>1</dim>
                    <dim>64</dim>
                    <dim>1</dim>
                    <dim>1</dim>
                </port>
            </input>
            <output>
                <port id="2" precision="FP32" names="/model.12/m.0/cv1/conv/Conv_output_0">
                    <dim>1</dim>
                    <dim>64</dim>
                    <dim>40</dim>
                    <dim>40</dim>
                </port>
            </output>
        </layer>
        <layer id="180" name="/model.12/m.0/cv1/act/Mul_output_0" type="Swish" version="opset4">
            <rt_info>
                <attribute name="fused_names" version="0"
                           value="/model.12/m.0/cv1/act/Mul_output_0, /model.12/m.0/cv1/act/Sigmoid_output_0"/>
            </rt_info>
            <input>
                <port id="0" precision="FP32">
                    <dim>1</dim>
                    <dim>64</dim>
                    <dim>40</dim>
                    <dim>40</dim>
                </port>
            </input>
            <output>
                <port id="1" precision="FP32" names="/model.12/m.0/cv1/act/Mul_output_0">
                    <dim>1</dim>
                    <dim>64</dim>
                    <dim>40</dim>
                    <dim>40</dim>
                </port>
            </output>
        </layer>
        <layer id="181" name="model.12.m.0.cv2.conv.weight" type="Const" version="opset1">
            <data element_type="f32" shape="64, 64, 3, 3" offset="5425496" size="147456"/>
            <rt_info>
                <attribute name="fused_names" version="0" value="model.12.m.0.cv2.conv.weight"/>
            </rt_info>
            <output>
                <port id="0" precision="FP32" names="model.12.m.0.cv2.conv.weight">
                    <dim>64</dim>
                    <dim>64</dim>
                    <dim>3</dim>
                    <dim>3</dim>
                </port>
            </output>
        </layer>
        <layer id="182" name="Convolution_1640" type="Convolution" version="opset1">
            <data strides="1, 1" dilations="1, 1" pads_begin="1, 1" pads_end="1, 1" auto_pad="explicit"/>
            <rt_info>
                <attribute name="fused_names" version="0" value="Convolution_1640"/>
            </rt_info>
            <input>
                <port id="0" precision="FP32">
                    <dim>1</dim>
                    <dim>64</dim>
                    <dim>40</dim>
                    <dim>40</dim>
                </port>
                <port id="1" precision="FP32">
                    <dim>64</dim>
                    <dim>64</dim>
                    <dim>3</dim>
                    <dim>3</dim>
                </port>
            </input>
            <output>
                <port id="2" precision="FP32">
                    <dim>1</dim>
                    <dim>64</dim>
…
        <layer id="486" name="Convolution_3030" type="Convolution" version="opset1">
            <data strides="1, 1" dilations="1, 1" pads_begin="0, 0" pads_end="0, 0" auto_pad="explicit"/>
            <rt_info>
                <attribute name="fused_names" version="0" value="Convolution_3030"/>
            </rt_info>
            <input>
                <port id="0" precision="FP32">
                    <dim>1</dim>
                    <dim>32</dim>
                    <dim>20</dim>
                    <dim>20</dim>
                </port>
                <port id="1" precision="FP32">
                    <dim>32</dim>
                    <dim>32</dim>
                    <dim>1</dim>
                    <dim>1</dim>
                </port>
            </input>
            <output>
                <port id="2" precision="FP32">
                    <dim>1</dim>
                    <dim>32</dim>
                    <dim>20</dim>
                    <dim>20</dim>
                </port>
            </output>
        </layer>
        <layer id="487" name="Reshape_3050" type="Const" version="opset1">
            <data element_type="f32" shape="1, 32, 1, 1" offset="13718248" size="128"/>
            <output>
                <port id="0" precision="FP32">
                    <dim>1</dim>
                    <dim>32</dim>
                    <dim>1</dim>
                    <dim>1</dim>
                </port>
            </output>
        </layer>
        <layer id="488" name="/model.22/cv4.2/cv4.2.2/Conv_output_0" type="Add" version="opset1">
            <data auto_broadcast="numpy"/>
            <rt_info>
                <attribute name="fused_names" version="0"
                           value="/model.22/cv4.2/cv4.2.2/Conv_output_0, Concat_3049, Reshape_3050"/>
            </rt_info>
            <input>
                <port id="0" precision="FP32">
                    <dim>1</dim>
                    <dim>32</dim>
                    <dim>20</dim>
                    <dim>20</dim>
                </port>
                <port id="1" precision="FP32">
                    <dim>1</dim>
                    <dim>32</dim>
                    <dim>1</dim>
                    <dim>1</dim>
                </port>
            </input>
            <output>
                <port id="2" precision="FP32" names="/model.22/cv4.2/cv4.2.2/Conv_output_0">
                    <dim>1</dim>
                    <dim>32</dim>
                    <dim>20</dim>
                    <dim>20</dim>
                </port>
            </output>
        </layer>
        <layer id="489" name="/model.22/Constant_2_output_0" type="Const" version="opset1">
            <data element_type="i64" shape="3" offset="13193296" size="24"/>
            <rt_info>
                <attribute name="fused_names" version="0" value="/model.22/Constant_2_output_0"/>
            </rt_info>
            <output>
                <port id="0" precision="I64" names="/model.22/Constant_2_output_0">
                    <dim>3</dim>
                </port>
            </output>
        </layer>
        <layer id="490" name="/model.22/Reshape_2_output_0" type="Reshape" version="opset1">
            <data special_zero="true"/>
            <rt_info>
                <attribute name="fused_names" version="0" value="/model.22/Reshape_2_output_0"/>
            </rt_info>
            <input>
                <port id="0" precision="FP32">
                    <dim>1</dim>
                    <dim>32</dim>
                    <dim>20</dim>
                    <dim>20</dim>
                </port>
                <port id="1" precision="I64">
                    <dim>3</dim>
                </port>
            </input>
            <output>
                <port id="2" precision="FP32" names="/model.22/Reshape_2_output_0">
                    <dim>1</dim>
                    <dim>32</dim>
                    <dim>400</dim>
                </port>
            </output>
        </layer>
        <layer id="491" name="/model.22/Concat_output_0" type="Concat" version="opset1">
            <data axis="2"/>
            <rt_info>
                <attribute name="fused_names" version="0" value="/model.22/Concat_output_0"/>
            </rt_info>
            <input>
                <port id="0" precision="FP32">
                    <dim>1</dim>
                    <dim>32</dim>
                    <dim>6400</dim>
                </port>
                <port id="1" precision="FP32">
                    <dim>1</dim>
                    <dim>32</dim>
                    <dim>1600</dim>
                </port>
                <port id="2" precision="FP32">
                    <dim>1</dim>
                    <dim>32</dim>
                    <dim>400</dim>
                </port>
            </input>
            <output>
                <port id="3" precision="FP32" names="/model.22/Concat_output_0">
                    <dim>1</dim>
                    <dim>32</dim>
                    <dim>8400</dim>
                </port>
            </output>
        </layer>
        <layer id="492" name="output0" type="Concat" version="opset1">
            <data axis="1"/>
            <rt_info>
                <attribute name="fused_names" version="0" value="output0"/>
            </rt_info>
            <input>
                <port id="0" precision="FP32">
                    <dim>1</dim>
                    <dim>4</dim>
                    <dim>8400</dim>
                </port>
                <port id="1" precision="FP32">
                    <dim>1</dim>
                    <dim>80</dim>
                    <dim>8400</dim>
                </port>
                <port id="2" precision="FP32">
                    <dim>1</dim>
                    <dim>32</dim>
                    <dim>8400</dim>
                </port>
            </input>
            <output>
                <port id="3" precision="FP32" names="output0">
                    <dim>1</dim>
                    <dim>116</dim>
                    <dim>8400</dim>
                </port>
            </output>
        </layer>
        <layer id="493" name="output0/sink_port_0" type="Result" version="opset1">
            <rt_info>
                <attribute name="fused_names" version="0" value="output0/sink_port_0"/>
            </rt_info>
            <input>
                <port id="0" precision="FP32">
                    <dim>1</dim>
                    <dim>116</dim>
                    <dim>8400</dim>
                </port>
            </input>
        </layer>
        <layer id="241" name="output1/sink_port_0" type="Result" version="opset1">
            <rt_info>
                <attribute name="fused_names" version="0" value="output1/sink_port_0"/>
            </rt_info>
            <input>
                <port id="0" precision="FP32">
                    <dim>1</dim>
                    <dim>32</dim>
                    <dim>160</dim>
                    <dim>160</dim>
                </port>
            </input>
        </layer>
    </layers>
    <edges>
        <edge from-layer="0" from-port="0" to-layer="2" to-port="0"/>
        <edge from-layer="1" from-port="0" to-layer="2" to-port="1"/>
        <edge from-layer="2" from-port="2" to-layer="4" to-port="0"/>
        <edge from-layer="3" from-port="0" to-layer="4" to-port="1"/>
        <edge from-layer="4" from-port="2" to-layer="5" to-port="0"/>
        <edge from-layer="5" from-port="1" to-layer="7" to-port="0"/>
        <edge from-layer="6" from-port="0" to-layer="7" to-port="1"/>
        <edge from-layer="7" from-port="2" to-layer="9" to-port="0"/>
        <edge from-layer="8" from-port="0" to-layer="9" to-port="1"/>
        <edge from-layer="9" from-port="2" to-layer="10" to-port="0"/>
        <edge from-layer="10" from-port="1" to-layer="12" to-port="0"/>
        <edge from-layer="11" from-port="0" to-layer="12" to-port="1"/>
        <edge from-layer="12" from-port="2" to-layer="14" to-port="0"/>
        <edge from-layer="13" from-port="0" to-layer="14" to-port="1"/>
        <edge from-layer="14" from-port="2" to-layer="15" to-port="0"/>
        <edge from-layer="15" from-port="1" to-layer="18" to-port="0"/>
        <edge from-layer="16" from-port="0" to-layer="18" to-port="1"/>
        <edge from-layer="17" from-port="0" to-layer="18" to-port="2"/>
        <edge from-layer="18" from-port="4" to-layer="20" to-port="0"/>
        <edge from-layer="18" from-port="4" to-layer="30" to-port="1"/>
        <edge from-layer="18" from-port="3" to-layer="30" to-port="0"/>
        <edge from-layer="18" from-port="4" to-layer="29" to-port="0"/>
        <edge from-layer="19" from-port="0" to-layer="20" to-port="1"/>
        <edge from-layer="20" from-port="2" to-layer="22" to-port="0"/>
        <edge from-layer="21" from-port="0" to-layer="22" to-port="1"/>
        <edge from-layer="22" from-port="2" to-layer="23" to-port="0"/>
        <edge from-layer="23" from-port="1" to-layer="25" to-port="0"/>
        <edge from-layer="24" from-port="0" to-layer="25" to-port="1"/>
        <edge from-layer="25" from-port="2" to-layer="27" to-port="0"/>
        <edge from-layer="26" from-port="0" to-layer="27" to-port="1"/>
        <edge from-layer="27" from-port="2" to-layer="28" to-port="0"/>
        <edge from-layer="28" from-port="1" to-layer="29" to-port="1"/>
        <edge from-layer="29" from-port="2" to-layer="30" to-port="2"/>
        <edge from-layer="30" from-port="3" to-layer="32" to-port="0"/>
        <edge from-layer="31" from-port="0" to-layer="32" to-port="1"/>
        <edge from-layer="32" from-port="2" to-layer="34" to-port="0"/>
        <edge from-layer="33" from-port="0" to-layer="34" to-port="1"/>
        <edge from-layer="34" from-port="2" to-layer="35" to-port="0"/>
        <edge from-layer="35" from-port="1" to-layer="37" to-port="0"/>
        <edge from-layer="36" from-port="0" to-layer="37" to-port="1"/>
        <edge from-layer="37" from-port="2" to-layer="39" to-port="0"/>
        <edge from-layer="38" from-port="0" to-layer="39" to-port="1"/>
        <edge from-layer="39" from-port="2" to-layer="40" to-port="0"/>
        <edge from-layer="40" from-port="1" to-layer="42" to-port="0"/>
        <edge from-layer="41" from-port="0" to-layer="42" to-port="1"/>
        <edge from-layer="42" from-port="2" to-layer="44" to-port="0"/>
        <edge from-layer="43" from-port="0" to-layer="44" to-port="1"/>
        <edge from-layer="44" from-port="2" to-layer="45" to-port="0"/>
        <edge from-layer="45" from-port="1" to-layer="48" to-port="0"/>
        <edge from-layer="46" from-port="0" to-layer="48" to-port="1"/>
        <edge from-layer="47" from-port="0" to-layer="48" to-port="2"/>
        <edge from-layer="47" from-port="0" to-layer="205" to-port="2"/>
        <edge from-layer="48" from-port="3" to-layer="71" to-port="0"/>
        <edge from-layer="48" from-port="4" to-layer="71" to-port="1"/>
        <edge from-layer="48" from-port="4" to-layer="59" to-port="0"/>
        <edge from-layer="48" from-port="4" to-layer="50" to-port="0"/>
        <edge from-layer="49" from-port="0" to-layer="50" to-port="1"/>
        <edge from-layer="50" from-port="2" to-layer="52" to-port="0"/>
        <edge from-layer="51" from-port="0" to-layer="52" to-port="1"/>
        <edge from-layer="52" from-port="2" to-layer="53" to-port="0"/>
        <edge from-layer="53" from-port="1" to-layer="55" to-port="0"/>
        <edge from-layer="54" from-port="0" to-layer="55" to-port="1"/>
        <edge from-layer="55" from-port="2" to-layer="57" to-port="0"/>
        <edge from-layer="56" from-port="0" to-layer="57" to-port="1"/>
        <edge from-layer="57" from-port="2" to-layer="58" to-port="0"/>
        <edge from-layer="58" from-port="1" to-layer="59" to-port="1"/>
        <edge from-layer="59" from-port="2" to-layer="70" to-port="0"/>
        <edge from-layer="59" from-port="2" to-layer="71" to-port="2"/>
        <edge from-layer="59" from-port="2" to-layer="61" to-port="0"/>
        <edge from-layer="60" from-port="0" to-layer="61" to-port="1"/>
        <edge from-layer="61" from-port="2" to-layer="63" to-port="0"/>
        <edge from-layer="62" from-port="0" to-layer="63" to-port="1"/>
        <edge from-layer="63" from-port="2" to-layer="64" to-port="0"/>
        <edge from-layer="64" from-port="1" to-layer="66" to-port="0"/>
        <edge from-layer="65" from-port="0" to-layer="66" to-port="1"/>
        <edge from-layer="66" from-port="2" to-layer="68" to-port="0"/>
        <edge from-layer="67" from-port="0" to-layer="68" to-port="1"/>
        <edge from-layer="68" from-port="2" to-layer="69" to-port="0"/>
        <edge from-layer="69" from-port="1" to-layer="70" to-port="1"/>
        <edge from-layer="70" from-port="2" to-layer="71" to-port="3"/>
        <edge from-layer="71" from-port="4" to-layer="73" to-port="0"/>
        <edge from-layer="72" from-port="0" to-layer="73" to-port="1"/>
        <edge from-layer="73" from-port="2" to-layer="75" to-port="0"/>
        <edge from-layer="74" from-port="0" to-layer="75" to-port="1"/>
        <edge from-layer="75" from-port="2" to-layer="76" to-port="0"/>
        <edge from-layer="76" from-port="1" to-layer="78" to-port="0"/>
        <edge from-layer="76" from-port="1" to-layer="198" to-port="1"/>
        <edge from-layer="77" from-port="0" to-layer="78" to-port="1"/>
        <edge from-layer="78" from-port="2" to-layer="80" to-port="0"/>
        <edge from-layer="79" from-port="0" to-layer="80" to-port="1"/>
        <edge from-layer="80" from-port="2" to-layer="81" to-port="0"/>
        <edge from-layer="81" from-port="1" to-layer="83" to-port="0"/>
        <edge from-layer="82" from-port="0" to-layer="83" to-port="1"/>
        <edge from-layer="83" from-port="2" to-layer="85" to-port="0"/>
        <edge from-layer="84" from-port="0" to-layer="85" to-port="1"/>
        <edge from-layer="85" from-port="2" to-layer="86" to-port="0"/>
        <edge from-layer="86" from-port="1" to-layer="89" to-port="0"/>
        <edge from-layer="87" from-port="0" to-layer="89" to-port="1"/>
        <edge from-layer="88" from-port="0" to-layer="286" to-port="2"/>
        <edge from-layer="88" from-port="0" to-layer="175" to-port="2"/>
        <edge from-layer="88" from-port="0" to-layer="89" to-port="2"/>
        <edge from-layer="89" from-port="4" to-layer="112" to-port="1"/>
        <edge from-layer="89" from-port="3" to-layer="112" to-port="0"/>
        <edge from-layer="89" from-port="4" to-layer="100" to-port="0"/>
        <edge from-layer="89" from-port="4" to-layer="91" to-port="0"/>
        <edge from-layer="90" from-port="0" to-layer="91" to-port="1"/>
        <edge from-layer="91" from-port="2" to-layer="93" to-port="0"/>
        <edge from-layer="92" from-port="0" to-layer="93" to-port="1"/>
        <edge from-layer="93" from-port="2" to-layer="94" to-port="0"/>
        <edge from-layer="94" from-port="1" to-layer="96" to-port="0"/>
        <edge from-layer="95" from-port="0" to-layer="96" to-port="1"/>
        <edge from-layer="96" from-port="2" to-layer="98" to-port="0"/>
        <edge from-layer="97" from-port="0" to-layer="98" to-port="1"/>
        <edge from-layer="98" from-port="2" to-layer="99" to-port="0"/>
        <edge from-layer="99" from-port="1" to-layer="100" to-port="1"/>
        <edge from-layer="100" from-port="2" to-layer="102" to-port="0"/>
        <edge from-layer="100" from-port="2" to-layer="111" to-port="0"/>
        <edge from-layer="100" from-port="2" to-layer="112" to-port="2"/>
        <edge from-layer="101" from-port="0" to-layer="102" to-port="1"/>
        <edge from-layer="102" from-port="2" to-layer="104" to-port="0"/>
        <edge from-layer="103" from-port="0" to-layer="104" to-port="1"/>
        <edge from-layer="104" from-port="2" to-layer="105" to-port="0"/>
        <edge from-layer="105" from-port="1" to-layer="107" to-port="0"/>
        <edge from-layer="106" from-port="0" to-layer="107" to-port="1"/>
        <edge from-layer="107" from-port="2" to-layer="109" to-port="0"/>
        <edge from-layer="108" from-port="0" to-layer="109" to-port="1"/>
        <edge from-layer="109" from-port="2" to-layer="110" to-port="0"/>
        <edge from-layer="110" from-port="1" to-layer="111" to-port="1"/>
        <edge from-layer="111" from-port="2" to-layer="112" to-port="3"/>
        <edge from-layer="112" from-port="4" to-layer="114" to-port="0"/>
        <edge from-layer="113" from-port="0" to-layer="114" to-port="1"/>
        <edge from-layer="114" from-port="2" to-layer="116" to-port="0"/>
        <edge from-layer="115" from-port="0" to-layer="116" to-port="1"/>
        <edge from-layer="116" from-port="2" to-layer="117" to-port="0"/>
        <edge from-layer="117" from-port="1" to-layer="119" to-port="0"/>
        <edge from-layer="117" from-port="1" to-layer="168" to-port="1"/>
        <edge from-layer="118" from-port="0" to-layer="119" to-port="1"/>
        <edge from-layer="119" from-port="2" to-layer="121" to-port="0"/>
        <edge from-layer="120" from-port="0" to-layer="121" to-port="1"/>
        <edge from-layer="121" from-port="2" to-layer="122" to-port="0"/>
        <edge from-layer="122" from-port="1" to-layer="124" to-port="0"/>
        <edge from-layer="123" from-port="0" to-layer="124" to-port="1"/>
        <edge from-layer="124" from-port="2" to-layer="126" to-port="0"/>
        <edge from-layer="125" from-port="0" to-layer="126" to-port="1"/>
        <edge from-layer="126" from-port="2" to-layer="127" to-port="0"/>
        <edge from-layer="127" from-port="1" to-layer="130" to-port="0"/>
        <edge from-layer="128" from-port="0" to-layer="130" to-port="1"/>
        <edge from-layer="129" from-port="0" to-layer="130" to-port="2"/>
        <edge from-layer="129" from-port="0" to-layer="346" to-port="2"/>
        <edge from-layer="130" from-port="4" to-layer="132" to-port="0"/>
        <edge from-layer="130" from-port="4" to-layer="141" to-port="0"/>
        <edge from-layer="130" from-port="3" to-layer="142" to-port="0"/>
        <edge from-layer="130" from-port="4" to-layer="142" to-port="1"/>
        <edge from-layer="131" from-port="0" to-layer="132" to-port="1"/>
        <edge from-layer="132" from-port="2" to-layer="134" to-port="0"/>
        <edge from-layer="133" from-port="0" to-layer="134" to-port="1"/>
        <edge from-layer="134" from-port="2" to-layer="135" to-port="0"/>
        <edge from-layer="135" from-port="1" to-layer="137" to-port="0"/>
        <edge from-layer="136" from-port="0" to-layer="137" to-port="1"/>
        <edge from-layer="137" from-port="2" to-layer="139" to-port="0"/>
        <edge from-layer="138" from-port="0" to-layer="139" to-port="1"/>
        <edge from-layer="139" from-port="2" to-layer="140" to-port="0"/>
        <edge from-layer="140" from-port="1" to-layer="141" to-port="1"/>
        <edge from-layer="141" from-port="2" to-layer="142" to-port="2"/>
        <edge from-layer="142" from-port="3" to-layer="144" to-port="0"/>
        <edge from-layer="143" from-port="0" to-layer="144" to-port="1"/>
        <edge from-layer="144" from-port="2" to-layer="146" to-port="0"/>
        <edge from-layer="145" from-port="0" to-layer="146" to-port="1"/>
        <edge from-layer="146" from-port="2" to-layer="147" to-port="0"/>
        <edge from-layer="147" from-port="1" to-layer="149" to-port="0"/>
        <edge from-layer="148" from-port="0" to-layer="149" to-port="1"/>
        <edge from-layer="149" from-port="2" to-layer="151" to-port="0"/>
        <edge from-layer="150" from-port="0" to-layer="151" to-port="1"/>
        <edge from-layer="151" from-port="2" to-layer="152" to-port="0"/>
        <edge from-layer="152" from-port="1" to-layer="156" to-port="0"/>
        <edge from-layer="152" from-port="1" to-layer="153" to-port="0"/>
        <edge from-layer="153" from-port="1" to-layer="156" to-port="1"/>
        <edge from-layer="153" from-port="1" to-layer="154" to-port="0"/>
        <edge from-layer="154" from-port="1" to-layer="156" to-port="2"/>
        <edge from-layer="154" from-port="1" to-layer="155" to-port="0"/>
        <edge from-layer="155" from-port="1" to-layer="156" to-port="3"/>
        <edge from-layer="156" from-port="4" to-layer="158" to-port="0"/>
        <edge from-layer="157" from-port="0" to-layer="158" to-port="1"/>
        <edge from-layer="158" from-port="2" to-layer="160" to-port="0"/>
        <edge from-layer="159" from-port="0" to-layer="160" to-port="1"/>
        <edge from-layer="160" from-port="2" to-layer="161" to-port="0"/>
        <edge from-layer="161" from-port="1" to-layer="339" to-port="1"/>
        <edge from-layer="161" from-port="1" to-layer="167" to-port="0"/>
        <edge from-layer="161" from-port="1" to-layer="162" to-port="0"/>
        <edge from-layer="162" from-port="1" to-layer="163" to-port="0"/>
        <edge from-layer="163" from-port="1" to-layer="165" to-port="0"/>
        <edge from-layer="164" from-port="0" to-layer="167" to-port="2"/>
        <edge from-layer="164" from-port="0" to-layer="165" to-port="1"/>
        <edge from-layer="165" from-port="2" to-layer="166" to-port="0"/>
        <edge from-layer="166" from-port="1" to-layer="167" to-port="1"/>
        <edge from-layer="167" from-port="3" to-layer="168" to-port="0"/>
        <edge from-layer="168" from-port="2" to-layer="170" to-port="0"/>
        <edge from-layer="169" from-port="0" to-layer="170" to-port="1"/>
        <edge from-layer="170" from-port="2" to-layer="172" to-port="0"/>
        <edge from-layer="171" from-port="0" to-layer="172" to-port="1"/>
        <edge from-layer="172" from-port="2" to-layer="173" to-port="0"/>
        <edge from-layer="173" from-port="1" to-layer="175" to-port="0"/>
        <edge from-layer="174" from-port="0" to-layer="175" to-port="1"/>
        <edge from-layer="175" from-port="3" to-layer="186" to-port="0"/>
        <edge from-layer="175" from-port="4" to-layer="186" to-port="1"/>
        <edge from-layer="175" from-port="4" to-layer="177" to-port="0"/>
        <edge from-layer="176" from-port="0" to-layer="177" to-port="1"/>
        <edge from-layer="177" from-port="2" to-layer="179" to-port="0"/>
        <edge from-layer="178" from-port="0" to-layer="179" to-port="1"/>
        <edge from-layer="179" from-port="2" to-layer="180" to-port="0"/>
        <edge from-layer="180" from-port="1" to-layer="182" to-port="0"/>
        <edge from-layer="181" from-port="0" to-layer="182" to-port="1"/>
        <edge from-layer="182" from-port="2" to-layer="184" to-port="0"/>
        <edge from-layer="183" from-port="0" to-layer="184" to-port="1"/>
        <edge from-layer="184" from-port="2" to-layer="185" to-port="0"/>
        <edge from-layer="185" from-port="1" to-layer="186" to-port="2"/>
        <edge from-layer="186" from-port="3" to-layer="188" to-port="0"/>
        <edge from-layer="187" from-port="0" to-layer="188" to-port="1"/>
        <edge from-layer="188" from-port="2" to-layer="190" to-port="0"/>
        <edge from-layer="189" from-port="0" to-layer="190" to-port="1"/>
        <edge from-layer="190" from-port="2" to-layer="191" to-port="0"/>
        <edge from-layer="191" from-port="1" to-layer="197" to-port="0"/>
        <edge from-layer="191" from-port="1" to-layer="279" to-port="1"/>
        <edge from-layer="191" from-port="1" to-layer="192" to-port="0"/>
        <edge from-layer="192" from-port="1" to-layer="193" to-port="0"/>
        <edge from-layer="193" from-port="1" to-layer="195" to-port="0"/>
        <edge from-layer="194" from-port="0" to-layer="197" to-port="2"/>
        <edge from-layer="194" from-port="0" to-layer="195" to-port="1"/>
        <edge from-layer="195" from-port="2" to-layer="196" to-port="0"/>
        <edge from-layer="196" from-port="1" to-layer="197" to-port="1"/>
        <edge from-layer="197" from-port="3" to-layer="198" to-port="0"/>
        <edge from-layer="198" from-port="2" to-layer="200" to-port="0"/>
        <edge from-layer="199" from-port="0" to-layer="200" to-port="1"/>
        <edge from-layer="200" from-port="2" to-layer="202" to-port="0"/>
        <edge from-layer="201" from-port="0" to-layer="202" to-port="1"/>
        <edge from-layer="202" from-port="2" to-layer="203" to-port="0"/>
        <edge from-layer="203" from-port="1" to-layer="205" to-port="0"/>
        <edge from-layer="204" from-port="0" to-layer="205" to-port="1"/>
        <edge from-layer="205" from-port="4" to-layer="207" to-port="0"/>
        <edge from-layer="205" from-port="4" to-layer="216" to-port="1"/>
        <edge from-layer="205" from-port="3" to-layer="216" to-port="0"/>
        <edge from-layer="206" from-port="0" to-layer="207" to-port="1"/>
        <edge from-layer="207" from-port="2" to-layer="209" to-port="0"/>
        <edge from-layer="208" from-port="0" to-layer="209" to-port="1"/>
        <edge from-layer="209" from-port="2" to-layer="210" to-port="0"/>
        <edge from-layer="210" from-port="1" to-layer="212" to-port="0"/>
        <edge from-layer="211" from-port="0" to-layer="212" to-port="1"/>
        <edge from-layer="212" from-port="2" to-layer="214" to-port="0"/>
        <edge from-layer="213" from-port="0" to-layer="214" to-port="1"/>
        <edge from-layer="214" from-port="2" to-layer="215" to-port="0"/>
        <edge from-layer="215" from-port="1" to-layer="216" to-port="2"/>
        <edge from-layer="216" from-port="3" to-layer="218" to-port="0"/>
        <edge from-layer="217" from-port="0" to-layer="218" to-port="1"/>
        <edge from-layer="218" from-port="2" to-layer="220" to-port="0"/>
        <edge from-layer="219" from-port="0" to-layer="220" to-port="1"/>
        <edge from-layer="220" from-port="2" to-layer="221" to-port="0"/>
        <edge from-layer="221" from-port="1" to-layer="275" to-port="0"/>
        <edge from-layer="221" from-port="1" to-layer="444" to-port="0"/>
        <edge from-layer="221" from-port="1" to-layer="258" to-port="0"/>
        <edge from-layer="221" from-port="1" to-layer="244" to-port="0"/>
        <edge from-layer="221" from-port="1" to-layer="223" to-port="0"/>
        <edge from-layer="222" from-port="0" to-layer="223" to-port="1"/>
        <edge from-layer="223" from-port="2" to-layer="225" to-port="0"/>
        <edge from-layer="224" from-port="0" to-layer="225" to-port="1"/>
        <edge from-layer="225" from-port="2" to-layer="226" to-port="0"/>
        <edge from-layer="226" from-port="1" to-layer="228" to-port="0"/>
        <edge from-layer="227" from-port="0" to-layer="228" to-port="1"/>
        <edge from-layer="228" from-port="2" to-layer="230" to-port="0"/>
        <edge from-layer="229" from-port="0" to-layer="230" to-port="1"/>
        <edge from-layer="230" from-port="2" to-layer="232" to-port="0"/>
        <edge from-layer="231" from-port="0" to-layer="232" to-port="1"/>
        <edge from-layer="232" from-port="2" to-layer="234" to-port="0"/>
        <edge from-layer="233" from-port="0" to-layer="234" to-port="1"/>
        <edge from-layer="234" from-port="2" to-layer="235" to-port="0"/>
        <edge from-layer="235" from-port="1" to-layer="237" to-port="0"/>
        <edge from-layer="236" from-port="0" to-layer="237" to-port="1"/>
        <edge from-layer="237" from-port="2" to-layer="239" to-port="0"/>
        <edge from-layer="238" from-port="0" to-layer="239" to-port="1"/>
        <edge from-layer="239" from-port="2" to-layer="240" to-port="0"/>
        <edge from-layer="240" from-port="1" to-layer="241" to-port="0"/>
        <edge from-layer="242" from-port="0" to-layer="422" to-port="0"/>
        <edge from-layer="243" from-port="0" to-layer="244" to-port="1"/>
        <edge from-layer="244" from-port="2" to-layer="246" to-port="0"/>
        <edge from-layer="245" from-port="0" to-layer="246" to-port="1"/>
        <edge from-layer="246" from-port="2" to-layer="247" to-port="0"/>
        <edge from-layer="247" from-port="1" to-layer="249" to-port="0"/>
        <edge from-layer="248" from-port="0" to-layer="249" to-port="1"/>
        <edge from-layer="249" from-port="2" to-layer="251" to-port="0"/>
        <edge from-layer="250" from-port="0" to-layer="251" to-port="1"/>
        <edge from-layer="251" from-port="2" to-layer="252" to-port="0"/>
        <edge from-layer="252" from-port="1" to-layer="254" to-port="0"/>
        <edge from-layer="253" from-port="0" to-layer="254" to-port="1"/>
        <edge from-layer="254" from-port="2" to-layer="256" to-port="0"/>
        <edge from-layer="255" from-port="0" to-layer="256" to-port="1"/>
        <edge from-layer="256" from-port="2" to-layer="271" to-port="0"/>
        <edge from-layer="257" from-port="0" to-layer="258" to-port="1"/>
        <edge from-layer="258" from-port="2" to-layer="260" to-port="0"/>
        <edge from-layer="259" from-port="0" to-layer="260" to-port="1"/>
        <edge from-layer="260" from-port="2" to-layer="261" to-port="0"/>
        <edge from-layer="261" from-port="1" to-layer="263" to-port="0"/>
        <edge from-layer="262" from-port="0" to-layer="263" to-port="1"/>
        <edge from-layer="263" from-port="2" to-layer="265" to-port="0"/>
        <edge from-layer="264" from-port="0" to-layer="265" to-port="1"/>
        <edge from-layer="265" from-port="2" to-layer="266" to-port="0"/>
        <edge from-layer="266" from-port="1" to-layer="268" to-port="0"/>
        <edge from-layer="267" from-port="0" to-layer="268" to-port="1"/>
        <edge from-layer="268" from-port="2" to-layer="270" to-port="0"/>
        <edge from-layer="269" from-port="0" to-layer="270" to-port="1"/>
        <edge from-layer="270" from-port="2" to-layer="271" to-port="1"/>
        <edge from-layer="271" from-port="2" to-layer="273" to-port="0"/>
        <edge from-layer="272" from-port="0" to-layer="273" to-port="1"/>
        <edge from-layer="273" from-port="2" to-layer="394" to-port="0"/>
        <edge from-layer="274" from-port="0" to-layer="275" to-port="1"/>
        <edge from-layer="275" from-port="2" to-layer="277" to-port="0"/>
        <edge from-layer="276" from-port="0" to-layer="277" to-port="1"/>
        <edge from-layer="277" from-port="2" to-layer="278" to-port="0"/>
        <edge from-layer="278" from-port="1" to-layer="279" to-port="0"/>
        <edge from-layer="279" from-port="2" to-layer="281" to-port="0"/>
        <edge from-layer="280" from-port="0" to-layer="281" to-port="1"/>
        <edge from-layer="281" from-port="2" to-layer="283" to-port="0"/>
        <edge from-layer="282" from-port="0" to-layer="283" to-port="1"/>
        <edge from-layer="283" from-port="2" to-layer="284" to-port="0"/>
        <edge from-layer="284" from-port="1" to-layer="286" to-port="0"/>
        <edge from-layer="285" from-port="0" to-layer="286" to-port="1"/>
        <edge from-layer="286" from-port="3" to-layer="297" to-port="0"/>
        <edge from-layer="286" from-port="4" to-layer="297" to-port="1"/>
        <edge from-layer="286" from-port="4" to-layer="288" to-port="0"/>
        <edge from-layer="287" from-port="0" to-layer="288" to-port="1"/>
        <edge from-layer="288" from-port="2" to-layer="290" to-port="0"/>
        <edge from-layer="289" from-port="0" to-layer="290" to-port="1"/>
        <edge from-layer="290" from-port="2" to-layer="291" to-port="0"/>
        <edge from-layer="291" from-port="1" to-layer="293" to-port="0"/>
        <edge from-layer="292" from-port="0" to-layer="293" to-port="1"/>
        <edge from-layer="293" from-port="2" to-layer="295" to-port="0"/>
        <edge from-layer="294" from-port="0" to-layer="295" to-port="1"/>
        <edge from-layer="295" from-port="2" to-layer="296" to-port="0"/>
        <edge from-layer="296" from-port="1" to-layer="297" to-port="2"/>
        <edge from-layer="297" from-port="3" to-layer="299" to-port="0"/>
        <edge from-layer="298" from-port="0" to-layer="299" to-port="1"/>
        <edge from-layer="299" from-port="2" to-layer="301" to-port="0"/>
        <edge from-layer="300" from-port="0" to-layer="301" to-port="1"/>
        <edge from-layer="301" from-port="2" to-layer="302" to-port="0"/>
        <edge from-layer="302" from-port="1" to-layer="460" to-port="0"/>
        <edge from-layer="302" from-port="1" to-layer="335" to-port="0"/>
        <edge from-layer="302" from-port="1" to-layer="318" to-port="0"/>
        <edge from-layer="302" from-port="1" to-layer="304" to-port="0"/>
        <edge from-layer="303" from-port="0" to-layer="304" to-port="1"/>
        <edge from-layer="304" from-port="2" to-layer="306" to-port="0"/>
        <edge from-layer="305" from-port="0" to-layer="306" to-port="1"/>
        <edge from-layer="306" from-port="2" to-layer="307" to-port="0"/>
        <edge from-layer="307" from-port="1" to-layer="309" to-port="0"/>
        <edge from-layer="308" from-port="0" to-layer="309" to-port="1"/>
        <edge from-layer="309" from-port="2" to-layer="311" to-port="0"/>
        <edge from-layer="310" from-port="0" to-layer="311" to-port="1"/>
        <edge from-layer="311" from-port="2" to-layer="312" to-port="0"/>
        <edge from-layer="312" from-port="1" to-layer="314" to-port="0"/>
        <edge from-layer="313" from-port="0" to-layer="314" to-port="1"/>
        <edge from-layer="314" from-port="2" to-layer="316" to-port="0"/>
        <edge from-layer="315" from-port="0" to-layer="316" to-port="1"/>
        <edge from-layer="316" from-port="2" to-layer="331" to-port="0"/>
        <edge from-layer="317" from-port="0" to-layer="318" to-port="1"/>
        <edge from-layer="318" from-port="2" to-layer="320" to-port="0"/>
        <edge from-layer="319" from-port="0" to-layer="320" to-port="1"/>
        <edge from-layer="320" from-port="2" to-layer="321" to-port="0"/>
        <edge from-layer="321" from-port="1" to-layer="323" to-port="0"/>
        <edge from-layer="322" from-port="0" to-layer="323" to-port="1"/>
        <edge from-layer="323" from-port="2" to-layer="325" to-port="0"/>
        <edge from-layer="324" from-port="0" to-layer="325" to-port="1"/>
        <edge from-layer="325" from-port="2" to-layer="326" to-port="0"/>
        <edge from-layer="326" from-port="1" to-layer="328" to-port="0"/>
        <edge from-layer="327" from-port="0" to-layer="328" to-port="1"/>
        <edge from-layer="328" from-port="2" to-layer="330" to-port="0"/>
        <edge from-layer="329" from-port="0" to-layer="330" to-port="1"/>
        <edge from-layer="330" from-port="2" to-layer="331" to-port="1"/>
        <edge from-layer="331" from-port="2" to-layer="333" to-port="0"/>
        <edge from-layer="332" from-port="0" to-layer="333" to-port="1"/>
        <edge from-layer="333" from-port="2" to-layer="394" to-port="1"/>
        <edge from-layer="334" from-port="0" to-layer="335" to-port="1"/>
        <edge from-layer="335" from-port="2" to-layer="337" to-port="0"/>
        <edge from-layer="336" from-port="0" to-layer="337" to-port="1"/>
        <edge from-layer="337" from-port="2" to-layer="338" to-port="0"/>
        <edge from-layer="338" from-port="1" to-layer="339" to-port="0"/>
        <edge from-layer="339" from-port="2" to-layer="341" to-port="0"/>
        <edge from-layer="340" from-port="0" to-layer="341" to-port="1"/>
        <edge from-layer="341" from-port="2" to-layer="343" to-port="0"/>
        <edge from-layer="342" from-port="0" to-layer="343" to-port="1"/>
        <edge from-layer="343" from-port="2" to-layer="344" to-port="0"/>
        <edge from-layer="344" from-port="1" to-layer="346" to-port="0"/>
        <edge from-layer="345" from-port="0" to-layer="346" to-port="1"/>
        <edge from-layer="346" from-port="4" to-layer="348" to-port="0"/>
        <edge from-layer="346" from-port="4" to-layer="357" to-port="1"/>
        <edge from-layer="346" from-port="3" to-layer="357" to-port="0"/>
        <edge from-layer="347" from-port="0" to-layer="348" to-port="1"/>
        <edge from-layer="348" from-port="2" to-layer="350" to-port="0"/>
        <edge from-layer="349" from-port="0" to-layer="350" to-port="1"/>
        <edge from-layer="350" from-port="2" to-layer="351" to-port="0"/>
        <edge from-layer="351" from-port="1" to-layer="353" to-port="0"/>
        <edge from-layer="352" from-port="0" to-layer="353" to-port="1"/>
        <edge from-layer="353" from-port="2" to-layer="355" to-port="0"/>
        <edge from-layer="354" from-port="0" to-layer="355" to-port="1"/>
        <edge from-layer="355" from-port="2" to-layer="356" to-port="0"/>
        <edge from-layer="356" from-port="1" to-layer="357" to-port="2"/>
        <edge from-layer="357" from-port="3" to-layer="359" to-port="0"/>
        <edge from-layer="358" from-port="0" to-layer="359" to-port="1"/>
        <edge from-layer="359" from-port="2" to-layer="361" to-port="0"/>
        <edge from-layer="360" from-port="0" to-layer="361" to-port="1"/>
        <edge from-layer="361" from-port="2" to-layer="362" to-port="0"/>
        <edge from-layer="362" from-port="1" to-layer="476" to-port="0"/>
        <edge from-layer="362" from-port="1" to-layer="378" to-port="0"/>
        <edge from-layer="362" from-port="1" to-layer="364" to-port="0"/>
        <edge from-layer="363" from-port="0" to-layer="364" to-port="1"/>
        <edge from-layer="364" from-port="2" to-layer="366" to-port="0"/>
        <edge from-layer="365" from-port="0" to-layer="366" to-port="1"/>
        <edge from-layer="366" from-port="2" to-layer="367" to-port="0"/>
        <edge from-layer="367" from-port="1" to-layer="369" to-port="0"/>
        <edge from-layer="368" from-port="0" to-layer="369" to-port="1"/>
        <edge from-layer="369" from-port="2" to-layer="371" to-port="0"/>
        <edge from-layer="370" from-port="0" to-layer="371" to-port="1"/>
        <edge from-layer="371" from-port="2" to-layer="372" to-port="0"/>
        <edge from-layer="372" from-port="1" to-layer="374" to-port="0"/>
        <edge from-layer="373" from-port="0" to-layer="374" to-port="1"/>
        <edge from-layer="374" from-port="2" to-layer="376" to-port="0"/>
        <edge from-layer="375" from-port="0" to-layer="376" to-port="1"/>
        <edge from-layer="376" from-port="2" to-layer="391" to-port="0"/>
        <edge from-layer="377" from-port="0" to-layer="378" to-port="1"/>
        <edge from-layer="378" from-port="2" to-layer="380" to-port="0"/>
        <edge from-layer="379" from-port="0" to-layer="380" to-port="1"/>
        <edge from-layer="380" from-port="2" to-layer="381" to-port="0"/>
        <edge from-layer="381" from-port="1" to-layer="383" to-port="0"/>
        <edge from-layer="382" from-port="0" to-layer="383" to-port="1"/>
        <edge from-layer="383" from-port="2" to-layer="385" to-port="0"/>
        <edge from-layer="384" from-port="0" to-layer="385" to-port="1"/>
        <edge from-layer="385" from-port="2" to-layer="386" to-port="0"/>
        <edge from-layer="386" from-port="1" to-layer="388" to-port="0"/>
        <edge from-layer="387" from-port="0" to-layer="388" to-port="1"/>
        <edge from-layer="388" from-port="2" to-layer="390" to-port="0"/>
        <edge from-layer="389" from-port="0" to-layer="390" to-port="1"/>
        <edge from-layer="390" from-port="2" to-layer="391" to-port="1"/>
        <edge from-layer="391" from-port="2" to-layer="393" to-port="0"/>
        <edge from-layer="392" from-port="0" to-layer="393" to-port="1"/>
        <edge from-layer="393" from-port="2" to-layer="394" to-port="2"/>
        <edge from-layer="394" from-port="3" to-layer="397" to-port="0"/>
        <edge from-layer="395" from-port="0" to-layer="397" to-port="1"/>
        <edge from-layer="396" from-port="0" to-layer="397" to-port="2"/>
        <edge from-layer="397" from-port="4" to-layer="442" to-port="0"/>
        <edge from-layer="397" from-port="3" to-layer="399" to-port="0"/>
        <edge from-layer="398" from-port="0" to-layer="399" to-port="1"/>
        <edge from-layer="399" from-port="2" to-layer="401" to-port="0"/>
        <edge from-layer="400" from-port="0" to-layer="401" to-port="1"/>
        <edge from-layer="401" from-port="2" to-layer="402" to-port="0"/>
        <edge from-layer="402" from-port="1" to-layer="404" to-port="0"/>
        <edge from-layer="403" from-port="0" to-layer="404" to-port="1"/>
        <edge from-layer="404" from-port="2" to-layer="406" to-port="0"/>
        <edge from-layer="405" from-port="0" to-layer="406" to-port="1"/>
        <edge from-layer="406" from-port="2" to-layer="433" to-port="0"/>
        <edge from-layer="406" from-port="2" to-layer="421" to-port="0"/>
        <edge from-layer="406" from-port="2" to-layer="410" to-port="0"/>
        <edge from-layer="407" from-port="0" to-layer="421" to-port="1"/>
        <edge from-layer="408" from-port="0" to-layer="419" to-port="0"/>
        <edge from-layer="409" from-port="0" to-layer="419" to-port="1"/>
        <edge from-layer="410" from-port="1" to-layer="413" to-port="0"/>
        <edge from-layer="411" from-port="0" to-layer="413" to-port="1"/>
        <edge from-layer="412" from-port="0" to-layer="413" to-port="2"/>
        <edge from-layer="413" from-port="3" to-layer="415" to-port="0"/>
        <edge from-layer="414" from-port="0" to-layer="415" to-port="1"/>
        <edge from-layer="415" from-port="2" to-layer="417" to-port="0"/>
        <edge from-layer="416" from-port="0" to-layer="417" to-port="1"/>
        <edge from-layer="417" from-port="2" to-layer="427" to-port="2"/>
        <edge from-layer="417" from-port="2" to-layer="430" to-port="0"/>
        <edge from-layer="417" from-port="2" to-layer="419" to-port="2"/>
        <edge from-layer="418" from-port="0" to-layer="419" to-port="3"/>
        <edge from-layer="419" from-port="4" to-layer="421" to-port="2"/>
        <edge from-layer="420" from-port="0" to-layer="421" to-port="3"/>
        <edge from-layer="421" from-port="4" to-layer="422" to-port="1"/>
        <edge from-layer="422" from-port="2" to-layer="438" to-port="1"/>
        <edge from-layer="422" from-port="2" to-layer="435" to-port="0"/>
        <edge from-layer="423" from-port="0" to-layer="434" to-port="0"/>
        <edge from-layer="424" from-port="0" to-layer="427" to-port="0"/>
        <edge from-layer="425" from-port="0" to-layer="431" to-port="1"/>
        <edge from-layer="425" from-port="0" to-layer="427" to-port="1"/>
        <edge from-layer="426" from-port="0" to-layer="431" to-port="3"/>
        <edge from-layer="426" from-port="0" to-layer="427" to-port="3"/>
        <edge from-layer="427" from-port="4" to-layer="433" to-port="1"/>
        <edge from-layer="428" from-port="0" to-layer="431" to-port="0"/>
        <edge from-layer="429" from-port="0" to-layer="430" to-port="1"/>
        <edge from-layer="430" from-port="2" to-layer="431" to-port="2"/>
        <edge from-layer="431" from-port="4" to-layer="433" to-port="2"/>
        <edge from-layer="432" from-port="0" to-layer="433" to-port="3"/>
        <edge from-layer="433" from-port="4" to-layer="434" to-port="1"/>
        <edge from-layer="434" from-port="2" to-layer="438" to-port="0"/>
        <edge from-layer="434" from-port="2" to-layer="435" to-port="1"/>
        <edge from-layer="435" from-port="2" to-layer="437" to-port="0"/>
        <edge from-layer="436" from-port="0" to-layer="437" to-port="1"/>
        <edge from-layer="437" from-port="2" to-layer="439" to-port="0"/>
        <edge from-layer="438" from-port="2" to-layer="439" to-port="1"/>
        <edge from-layer="439" from-port="2" to-layer="441" to-port="0"/>
        <edge from-layer="440" from-port="0" to-layer="441" to-port="1"/>
        <edge from-layer="441" from-port="2" to-layer="492" to-port="0"/>
        <edge from-layer="442" from-port="1" to-layer="492" to-port="1"/>
        <edge from-layer="443" from-port="0" to-layer="444" to-port="1"/>
        <edge from-layer="444" from-port="2" to-layer="446" to-port="0"/>
        <edge from-layer="445" from-port="0" to-layer="446" to-port="1"/>
        <edge from-layer="446" from-port="2" to-layer="447" to-port="0"/>
        <edge from-layer="447" from-port="1" to-layer="449" to-port="0"/>
        <edge from-layer="448" from-port="0" to-layer="449" to-port="1"/>
        <edge from-layer="449" from-port="2" to-layer="451" to-port="0"/>
        <edge from-layer="450" from-port="0" to-layer="451" to-port="1"/>
        <edge from-layer="451" from-port="2" to-layer="452" to-port="0"/>
        <edge from-layer="452" from-port="1" to-layer="454" to-port="0"/>
        <edge from-layer="453" from-port="0" to-layer="454" to-port="1"/>
        <edge from-layer="454" from-port="2" to-layer="456" to-port="0"/>
        <edge from-layer="455" from-port="0" to-layer="456" to-port="1"/>
        <edge from-layer="456" from-port="2" to-layer="458" to-port="0"/>
        <edge from-layer="457" from-port="0" to-layer="458" to-port="1"/>
        <edge from-layer="458" from-port="2" to-layer="491" to-port="0"/>
        <edge from-layer="459" from-port="0" to-layer="460" to-port="1"/>
        <edge from-layer="460" from-port="2" to-layer="462" to-port="0"/>
        <edge from-layer="461" from-port="0" to-layer="462" to-port="1"/>
        <edge from-layer="462" from-port="2" to-layer="463" to-port="0"/>
        <edge from-layer="463" from-port="1" to-layer="465" to-port="0"/>
        <edge from-layer="464" from-port="0" to-layer="465" to-port="1"/>
        <edge from-layer="465" from-port="2" to-layer="467" to-port="0"/>
        <edge from-layer="466" from-port="0" to-layer="467" to-port="1"/>
        <edge from-layer="467" from-port="2" to-layer="468" to-port="0"/>
        <edge from-layer="468" from-port="1" to-layer="470" to-port="0"/>
        <edge from-layer="469" from-port="0" to-layer="470" to-port="1"/>
        <edge from-layer="470" from-port="2" to-layer="472" to-port="0"/>
        <edge from-layer="471" from-port="0" to-layer="472" to-port="1"/>
        <edge from-layer="472" from-port="2" to-layer="474" to-port="0"/>
        <edge from-layer="473" from-port="0" to-layer="474" to-port="1"/>
        <edge from-layer="474" from-port="2" to-layer="491" to-port="1"/>
        <edge from-layer="475" from-port="0" to-layer="476" to-port="1"/>
        <edge from-layer="476" from-port="2" to-layer="478" to-port="0"/>
        <edge from-layer="477" from-port="0" to-layer="478" to-port="1"/>
        <edge from-layer="478" from-port="2" to-layer="479" to-port="0"/>
        <edge from-layer="479" from-port="1" to-layer="481" to-port="0"/>
        <edge from-layer="480" from-port="0" to-layer="481" to-port="1"/>
        <edge from-layer="481" from-port="2" to-layer="483" to-port="0"/>
        <edge from-layer="482" from-port="0" to-layer="483" to-port="1"/>
        <edge from-layer="483" from-port="2" to-layer="484" to-port="0"/>
        <edge from-layer="484" from-port="1" to-layer="486" to-port="0"/>
        <edge from-layer="485" from-port="0" to-layer="486" to-port="1"/>
        <edge from-layer="486" from-port="2" to-layer="488" to-port="0"/>
        <edge from-layer="487" from-port="0" to-layer="488" to-port="1"/>
        <edge from-layer="488" from-port="2" to-layer="490" to-port="0"/>
        <edge from-layer="489" from-port="0" to-layer="490" to-port="1"/>
        <edge from-layer="490" from-port="2" to-layer="491" to-port="2"/>
        <edge from-layer="491" from-port="3" to-layer="492" to-port="2"/>
        <edge from-layer="492" from-port="3" to-layer="493" to-port="0"/>
    </edges>
    <meta_data>
        <MO_version value="2022.1.0-7019-cdb9bec7210-releases/2022/1"/>
        <Runtime_version value="2022.1.0-7019-cdb9bec7210-releases/2022/1"/>
        <legacy_path value="False"/>
        <cli_parameters>
            <caffe_parser_path value="DIR"/>
            <compress_fp16 value="False"/>
            <data_type value="float"/>
            <disable_nhwc_to_nchw value="False"/>
            <disable_omitting_optional value="False"/>
            <disable_resnet_optimization value="False"/>
            <disable_weights_compression value="False"/>
            <enable_concat_optimization value="False"/>
            <enable_flattening_nested_params value="False"/>
            <enable_ssd_gluoncv value="False"/>
            <extensions value="DIR"/>
            <framework value="onnx"/>
            <freeze_placeholder_with_value value="{}"/>
            <input_model value="DIR/yolov8n-seg.onnx"/>
            <input_model_is_text value="False"/>
            <k value="DIR/CustomLayersMapping.xml"/>
            <layout value="()"/>
            <layout_values value="{}"/>
            <legacy_mxnet_model value="False"/>
            <log_level value="ERROR"/>
            <mean_scale_values value="{}"/>
            <mean_values value="()"/>
            <model_name value="yolov8n-seg"/>
            <output_dir value="DIR"/>
            <placeholder_data_types value="{}"/>
            <progress value="False"/>
            <remove_memory value="False"/>
            <remove_output_softmax value="False"/>
            <reverse_input_channels value="False"/>
            <save_params_from_nd value="False"/>
            <scale_values value="()"/>
            <silent value="False"/>
            <source_layout value="()"/>
            <static_shape value="False"/>
            <stream_output value="False"/>
            <target_layout value="()"/>
            <transform value=""/>
            <use_legacy_frontend value="False"/>
            <use_new_frontend value="False"/>
            <unset unset_cli_parameters="batch, counts, disable_fusing, finegrain_fusing, input, input_checkpoint, input_meta_graph, input_proto, input_shape, input_symbol, mean_file, mean_file_offsets, nd_prefix_name, output, placeholder_shapes, pretrained_model_name, saved_model_dir, saved_model_tags, scale, tensorboard_logdir, tensorflow_custom_layer_libraries, tensorflow_custom_operations_config_update, tensorflow_object_detection_api_pipeline_config, tensorflow_use_custom_operations_config, transformations_config"/>
        </cli_parameters>
    </meta_data>
</net>
